trained_agent.pth (torch, 42386 bytes, 12 tensors)

net.0.weight f4 [64, 4]
00000000: fad6 ad3e 5fd2 efbc 3b4a 0ac0 663b ffbe
00000010: bba6 773e 6e92 3d3e 21b9 1fbf 1e58 d73e
00000020: 1c78 06be e6e1 a1c0 0013 9d3f f12c 90c0
00000030: a605 8a3e 7eb3 b0bd 431a ca3f a6e6 99be
00000040: febc b03d 57fd 1b3d 7181 41bf b27a 3dbd
00000050: 1b78 5abe b0f8 aabd 33f1 84bf 2e55 2d3f
00000060: fc50 97bf 4c68 a1bd cfff 663e 40e0 22bf
00000070: 43a1 0ebe 3829 9cc0 fed1 cd3f 1ee7 36bf
00000080: a2de 35be 6fd9 c43c a430 37bf 1129 abbe
00000090: fdd4 e93c e185 823d 5646 2c3e b762 01bf
000000a0: e646 803e f026 b13e 9f2c f6be c9d7 5ebe
000000b0: a96f 49bf ad73 ffbf 2e14 71bf 3c31 0a3d
000000c0: 5af4 843e 65c2 40c0 49b9 eabf 9ac0 1fbf
000000d0: ce51 8dbe d8b1 bbbc 06d6 813f 0b0b 5dbe
000000e0: 30ae 9fbd 26bf 7dbd b1fc 423f 26c5 2cbe
000000f0: e377 83bc f4ba aebe ba03 dc3d ab6f 4dbe
00000100: 505b 41be cedf c8bd bc38 1340 cf9d 73bf
00000110: 1906 b43c 8409 9fc0 d3cb 0bbf febf 0dbf
00000120: e96a 203d 6690 fd3c 0836 28bf d600 50be
00000130: f0ec 65be 0f8c 9fbe af08 edbf 0a3b 14be
00000140: da3d 883d fb6e dfbd 7eec 3140 0b5b 37bf
00000150: 9013 1a3d fde4 51bc 6ed5 1940 1456 92bf
00000160: c45c 6ebf 7aac f5bf e3dd cabd d8c0 56bf
00000170: b2a4 013e 8549 993d d9f7 a6bf 226d e3bd
00000180: fb3b bfbd 2f46 4ebe 1671 b83f e2b4 09bf
00000190: a70e 5bbc e927 903d 3439 6340 0120 11bf
000001a0: 3cfa d33b 88c6 c2be 09c4 dabe fb5c 56be
000001b0: a6b9 b7be 5e25 b1c0 affe 943f f74c 0ebf
000001c0: 8b1a 2cbd a15c bbc0 5a70 cbbe 5647 393e
000001d0: 1d48 38bd d539 873d 30bf 9c3f 3bf9 64bf
000001e0: 009e b53a 5084 3ebe f0ea 0dbd 2479 adbe
000001f0: d942 60be 109f b8bf 8ef3 71bf 9d67 13bf
00000200: fa1d 3f3e 76b4 ff3b b5b7 cc3e 685e 2dbe
00000210: 6e73 d3be ef58 4ebd bd36 313f 26d6 61bf
00000220: 6c20 d7bd 7354 d3c0 341e 82be 20d7 abbf
00000230: 7d0f 83be fc65 2e3d 23ee 5240 5e89 6abf
00000240: 523a 4d3c a8fe d4bd 82d0 0440 4051 ba3d
00000250: f401 d73d 5ea5 e03d d08c 993f 04bc 72bd
00000260: 90f2 c03c 417b a7c0 82ef ffbe c447 b9bf
00000270: 6bea 383d 9ffd 5d3c 275b 4e40 7234 89be
00000280: 692c 2d3e 1bca a2be 2bfb ee3f 9f8a 6ebe
00000290: 96c4 133f 2d4a 72be 7122 0abf 3de3 203e
000002a0: 5167 74bd 927c 37c0 21d2 1b3f 86b3 023e
000002b0: 9da7 913d ad62 39c0 34e2 203f ae9d 59be
000002c0: 80b6 a13c 5c19 e1bd 2ba3 4540 1bc5 aebf
000002d0: 8450 113c 3a83 243d 9347 a3be 6397 82be
000002e0: ecd6 8ebf 213e c6bf cba2 403e 3d70 81be
000002f0: 278f e9bd b3f5 a7bd e4fb 3240 3135 9ebf
00000300: 58fd ca3e ca2d 0abd 946c 21bf d1d5 cdbe
00000310: cde4 1abd ac67 2b3b 2bc0 b4bd 0966 13bc
00000320: 83f9 44be 826c 15c0 caaa 1ebf 6414 39be
00000330: 652c 13bf 1910 223d c562 a1bf 41fe 59be
00000340: 21d4 35c0 4f2f dfbc f66c ccbe 5fa6 7f3d
00000350: 40e8 4a3e e590 f83d 651d 14c0 a3c7 b2be
00000360: b04d 38be eb0e 5b3d 021a 9dbe d8f1 1dbe
00000370: d5d7 1abf cef5 e03c e278 07c0 c76c 34bf
00000380: 58ea cbbe f8ad e3bd f95b 0a40 63b5 9bbf
00000390: fa7b 903d 1823 0b3b 60a2 46c0 029f f43e
000003a0: 59c2 e6bd cbca 0fbc 4c80 55bf eefc e0be
000003b0: 2130 cd3c bb6d 7bbf 6ce3 643f da7f 19c0
000003c0: 2739 17bf ca73 803d 0104 453f 7ae3 8fbf
000003d0: 1a7e 14bf 12f5 efbf cdeb dfbf 7368 67bf
000003e0: 1620 d8bf 54e7 66ba a48a 13be 414c a4bd
000003f0: 9982 16be d435 45bd 28a7 db3f 5bde c7bf
0.33953077 -0.029275117 -2.1607807 -0.49850005 0.24184696 0.1851289 -0.6239186 0.42059416
-0.13131756 -5.0588255 1.2271423 -4.505486 0.26957434 -0.086279854 1.5789264 -0.30058783
0.086297974 0.0380834 -0.75588137 -0.04625959 -0.21334879 -0.083482146 -1.0386108 0.677081
-1.182159 -0.07881221 0.2255852 -0.6362343 -0.13928704 -4.8800316 1.607971 -0.71446407
-0.17760709 0.024029462 -0.71558595 -0.3342977 0.028543944 0.063731916 0.16823706 -0.5054125
0.2505409 0.3460002 -0.48080918 -0.21762003 -0.78686005 -1.9957176 -0.94171417 0.03373836
0.25967675 -3.011865 -1.8337795 -0.6240326 -0.27601475 -0.022911951 1.014344 -0.21586244
-0.077968955 -0.06194987 0.76166826 -0.16872081 -0.016048377 -0.3412701 0.10742898 -0.20062129
-0.18882489 -0.09808312 2.3003378 -0.9516267 0.021975564 -4.9699116 -0.54607886 -0.5537108
0.039164457 0.030952644 -0.65707445 -0.20312819 -0.22453666 -0.31161544 -1.8518275 -0.14475647
0.06652422 -0.1090984 2.7800593 -0.71623296 0.037616313 -0.012810943 2.4036517 -1.1432519
-0.931103 -1.9193261 -0.09905603 -0.83888006 0.12660483 0.07484726 -1.3044387 -0.111048
-0.09337612 -0.2014396 1.4409511 -0.5379163 -0.013370193 0.07038862 3.5503664 -0.5668946
0.0064690392 -0.38042092 -0.42727688 -0.20933907 -0.35883826 -5.5358114 1.1640223 -0.5558619
-0.0420175 -5.8550572 -0.39734155 0.18093619 -0.044990648 0.066028275 1.2245846 -0.89442796
0.0013856292 -0.1860516 -0.034647882 -0.33881485 -0.219005 -1.4423542 -0.9451226 -0.57579976
0.18663779 0.007803495 0.39983907 -0.16930544 -0.41299003 -0.050377782 0.6922415 -0.8821739
-0.10504231 -6.6040587 -0.25413668 -1.3425026 -0.25597754 0.04257773 3.2957847 -0.91615856
0.012526112 -0.10400134 2.0752263 0.090975285 0.104984194 0.10969041 1.1996098 -0.059261337
0.023553163 -5.2337956 -0.49987417 -1.4475026 0.045145433 0.0135492375 3.2243135 -0.26797825
0.16911472 -0.3179482 1.86704 -0.23295067 0.5772184 -0.23661108 -0.53958803 0.15711685
-0.059668843 -2.8669782 0.60867506 0.12763795 0.07112048 -2.8966477 0.6284516 -0.21251556
0.019740343 -0.10991165 3.088084 -1.3653902 0.008869294 0.04016421 -0.31890544 -0.25506124
-1.1159339 -1.548771 0.188121 -0.25280944 -0.11404257 -0.0820116 2.7966242 -1.2359983
0.3964641 -0.033735074 -0.630563 -0.4020219 -0.037815858 0.0026154323 -0.08825716 -0.008996495
-0.19235806 -2.3347478 -0.61979353 -0.18074185 -0.57489616 0.039566133 -1.2608267 -0.21288396
-2.8410723 -0.027244238 -0.3992688 0.062414523 0.19815159 0.121370114 -2.314294 -0.34917936
-0.17998385 0.053481024 -0.30683905 -0.15424287 -0.60485584 0.027460959 -2.116753 -0.7047848
-0.39827228 -0.11117166 2.1618636 -1.216473 0.07054897 0.0021230634 -3.1036606 0.47777563
-0.112675376 -0.008776377 -0.8339889 -0.4394297 0.025047364 -0.9821431 0.8940952 -2.3984284
-0.5907158 0.06272085 0.76959234 -1.1241295 -0.58004916 -1.8746665 -1.7493836 -0.9039375
-1.6884792 -0.0008808274 -0.14408356 -0.08022357 -0.14698257 -0.048147038 1.7160387 -1.5614733

net.0.bias f4 [64]
00000000: d639 3140 2f66 86bf 79fb 4540 ce47 963f
00000010: de02 4640 708c 8fbf 9d47 eb3f b45c 2c3f
00000020: f761 6d40 bd8a 8340 9143 1840 e8b4 7e3e
00000030: 2ce6 00c0 d028 3e3f 3a33 f63f f808 0bbf
00000040: 6e85 f43f 67ef ffba 2e03 1b40 793e ea3f
00000050: 692e 40c0 77c6 e53f 4dac d93f fc11 ddbd
00000060: 10ec 6b40 ed02 06c0 d172 06be da9b e03e
00000070: d674 e1be 146e 1340 2047 f3be ee6e fd3f
00000080: 4bd2 2e40 b053 803e 5954 a2b9 154a ecbf
00000090: 5d7b 06c0 d06f fcbf 2263 c4ba 5f56 26c0
000000a0: 7514 f3bf 06ba 11c0 b6fa ccbf 0f3f 583f
000000b0: 5d15 1ebf 5c0e 2c40 5aab b03f ae7e 2240
000000c0: 71cf a73f 2c5a 3240 bf14 1340 4560 0d40
000000d0: b45a 7e3f 941d 3ebf 9488 e83f ab5b 5440
000000e0: 2939 73c0 6108 2bbf 51db 7640 643c 7f3f
000000f0: b672 bc3f ee1b 8e40 3fbb 12bf ad79 aa40
2.769155 -1.0499934 3.0934737 1.1740663 3.093925 -1.1214733 1.838123 0.67328954
3.7091043 4.110686 2.379124 0.24873698 -2.0140486 0.74281025 1.9234383 -0.5431056
1.910322 -0.0019526304 2.422069 1.8300315 -3.0028327 1.7951192 1.7005707 -0.10794446
3.686283 -2.0939286 -0.13129736 0.43868905 -0.4403445 2.3035936 -0.47515202 1.9799478
2.7315853 0.25063848 -0.00030961892 -1.8460108 -2.1012795 -1.9721622 -0.0014983157 -2.5990217
-1.8990618 -2.276979 -1.6014011 0.8447122 -0.6175135 2.6883764 1.3802292 2.538982
1.3110181 2.7867537 2.2981412 2.2090008 0.9935715 -0.7426388 1.816668 3.318095
-3.8003638 -0.6680966 3.857136 0.99701524 1.4722507 4.4409094 -0.57316965 5.327353

net.2.weight f4 [64, 64]
00000000: fbdb 2bbf f175 7bc0 4a3a 87c0 5864 0140
00000010: 0858 b5bd 34f7 83c0 46fb f03f 60e7 773e
00000020: e346 4dbe d4c6 e23e 28bc f8be 8db1 07c0
00000030: 80be 6e3e 6b4e 08bf f94d 683f 12ea eabd
00000040: ff75 4d40 dcde 923d bbbd 9e3e 2cf4 08c0
00000050: c0b7 2ec0 ea3a 2140 ba88 d23f 640f 613e
00000060: 97b2 14be 27c5 c8be 1883 d83c bbdb 54bf
00000070: bef9 5b3f c4c8 1c40 cc1c 0d3d 870f 623f
00000080: bf49 c13e 7241 97be c794 c4be 01a8 ba3f
00000090: 32d1 3cc0 3565 62bf c778 8dbe 9974 413f
000000a0: 0f43 c7be 71aa 45bf 44de fabf 6a3b 99bd
000000b0: e671 6240 c9ed 853e 9e52 34be a28e 4cc0
000000c0: 4677 a3bb 1f9b ad3e 50fd 97be 8bd5 193c
000000d0: 6d0b f0be 18b6 8ac0 9d91 9c3f 5b52 4a3d
000000e0: d7bd 42c0 9e0c 0fc0 40ed 8b3e 3496 10c0
000000f0: e46c cf3f 335e 97be ed19 99bc e410 67c0
00000100: 5970 c4be bb7b c9c0 e105 243e b5ba a23f
00000110: b746 433e 1b6b ddc0 3a76 a73f c1de 343e
00000120: 2951 28be 988e 8d3e 8662 fcbe b308 4d3f
00000130: b557 c9bd 7fd4 a2be abb0 073f 874f a2bd
00000140: 74c2 cf3f 8fb5 a73e e5ef cc3e 5631 e2be
00000150: 370e d3c0 569e 5f3f 051a 1c3e d5c0 343e
00000160: c897 143e 0f84 6cc0 d457 a5bd cc42 b53f
00000170: c186 9dc0 3599 da3f c480 b63d fa85 ff3e
00000180: 6f5f 893e 4929 803e 0351 3540 60d7 17c0
00000190: c7e2 a0bf 29d9 0ebf c57b 83be 0396 e2bf
000001a0: 2ffc 80bf 64a2 e1bf 66a1 00c0 9684 c33e
000001b0: a242 1d40 9421 70bd 5ff1 aa3e a709 aac0
000001c0: d7b8 8bbc 1efd 063f 6819 99be 8c4b 943f
000001d0: f2c4 a1bd 434f 66c0 26a2 5f3f 641d 5fbe
000001e0: ab1d bcbf 6a5f 09c0 07b0 9f3d bfd8 653f
000001f0: 2f5d 5e3f 5012 e4be cf62 a23d 4bb1 7fc0
00000200: 5069 1b3d 7f21 f5bd 0987 eebc 921d 1bbe
00000210: cb87 25be e7eb 24b7 ece7 a03c 26b6 d93b
00000220: 076a bfbd b7c2 5f3d 6c58 f5bc fa34 bebd
00000230: e0e3 e7bb 3bb7 873a dc42 85bc 4003 b5bd
00000240: da93 9d3c b15a abbd 677b 15be 4d4a 04be
00000250: 88e3 f63d 1ed0 a23d 8909 a93d 595d 313d
00000260: 5d4e 563d 1ac7 41bd bcdb 8cbd 2335 5a3d
00000270: a0a7 84bd 02c4 acbd c07f 23bd d602 4e3c
00000280: 5495 8c3b 31b9 9ebd 9076 b2bd ddce 0cbb
00000290: ccf9 d2bd 99db bbbd 5c4c 3a3d c339 4bbd
000002a0: fe19 b13d f91c f83d 5c24 193d 87f2 053d
000002b0: a256 9bb8 b5e9 6ebd 3c2a 19bd 002f e13a
000002c0: 588b 63bc abb5 643d a543 26bd 2745 adbd
000002d0: b3f9 babd 4e48 b5bd ea13 16bd a5ae 053d
000002e0: 318c 8d3d 816a c33c bb4a 1cbe 7c65 89bd
000002f0: cf1d 3fbd d353 24bd 4490 4dbd 2406 16be
00000300: 294e 4bbf 0e8e 0fc1 2ea9 19c0 3311 fb3f
00000310: fb73 ab3e 96db 25c1 5512 a13f 75e4 6c3f
00000320: e889 52be d3d0 de3e adec a1be ece7 cb3e
00000330: 7d03 933e 809b 333a 2226 6c3f 9417 94bc
00000340: a8f1 3840 90e8 813e 246b 163f 12aa aabf
00000350: 20f9 c8c0 3bc9 1340 c3d5 bbbf ca8d 43bf
00000360: d5df ba3e f401 52c0 281e cdbd 5ead 0640
00000370: 15b0 ebc0 ddb1 1940 f044 e3bc 9aa5 1cc0
00000380: ed97 473f 58e0 9cbe 7e00 513f 1c65 8bc0
00000390: 4687 9cbf 5a0e bcbf cfc6 a2be 6ad2 32c0
000003a0: 0fcd 82bf 5405 12c0 4c9f 25c0 c7ee 613f
000003b0: ec5c 0640 8606 c83d cede 033f dbf0 57c0
000003c0: 18e3 c13e 4749 4a3f 41a0 ab3e c868 9f3c
000003d0: d442 03bf 4333 77c0 8299 f23e 591a 87bf
000003e0: e0c1 94c0 ad23 78c0 34b2 3bbe cd60 b83d
000003f0: 5072 d23d 8815 9abf 7787 dbbd ac98 48c0
-0.6713254 -3.9290736 -4.2258654 2.0217495 -0.08854681 -4.123926 1.8826683 0.24209356
-0.20046572 0.4429232 -0.48581052 -2.1202118 0.23314857 -0.53244656 0.90743977 -0.114704266
3.210327 0.07171413 0.31004128 -2.139903 -2.7299652 2.5192208 1.6447976 0.21978527
-0.14521252 -0.39212915 0.026429698 -0.8314778 0.8592795 2.4497538 0.03445129 0.8830494
0.37751576 -0.29542118 -0.38394758 1.4582521 -2.9502683 -0.8843568 -0.27631208 0.7556854
-0.3891835 -0.772132 -1.959908 -0.074820355 3.5382018 0.26157978 -0.17609641 -3.1962056
-0.0049885837 0.3390741 -0.2968545 0.0093892915 -0.46883717 -4.3347282 1.2231938 0.049394947
-3.042837 -2.235145 0.27329445 -2.2591677 1.6205106 -0.29564056 -0.01868912 -3.610406
-0.38366964 -6.296354 0.16017868 1.2713228 0.19069944 -6.9193244 1.3082955 0.17663099
-0.1643721 0.27647853 -0.49293917 0.800914 -0.09831182 -0.31802747 0.5300395 -0.07925325
1.6231217 0.32755706 0.40026775 -0.44178265 -6.595485 0.87350976 0.152443 0.17651685
0.14511025 -3.6955602 -0.080733925 1.416101 -4.9226995 1.7078005 0.08911279 0.49906904
0.26830623 0.25031498 2.8330696 -2.3725204 -1.2569207 -0.5580011 -0.25680366 -1.770203
-1.007696 -1.7627683 -2.009851 0.38187093 2.457192 -0.058625773 0.33387277 -5.3136783
-0.017055912 0.52729976 -0.29902196 1.1585555 -0.078988925 -3.5985878 0.87356794 -0.21788555
-1.4696554 -2.1464486 0.077972464 0.89783853 0.86860937 -0.4454522 0.079290025 -3.995196
0.03794223 -0.119692795 -0.029117124 -0.15147999 -0.16165082 -9.830087e-06 0.019641839 0.0066440282
-0.09346395 0.054629054 -0.02994939 -0.09287448 -0.0070767254 0.001035429 -0.016267233 -0.088385105
0.01923554 -0.083669074 -0.14597856 -0.12918968 0.12055117 0.079498515 0.08253772 0.043301914
0.052320827 -0.04730902 -0.068778485 0.05327333 -0.064772844 -0.08435823 -0.039916754 0.012573918
0.0042902622 -0.07750166 -0.0871402 -0.0021485605 -0.10301551 -0.09172744 0.04548298 -0.049615633
0.08647536 0.12114901 0.03738819 0.032701995 -7.4071126e-05 -0.05832835 -0.037393793 0.0017180145
-0.013888203 0.055837315 -0.040591855 -0.084604554 -0.091296576 -0.08851682 -0.036640085 0.032637257
0.06911505 0.023854496 -0.15262882 -0.0670881 -0.046659287 -0.040119004 -0.05018641 -0.1465078
-0.7941614 -8.972181 -2.400951 1.9614624 0.33486924 -10.36611 1.258372 0.925361
-0.2056042 0.43518695 -0.31625882 0.3982538 0.287136 0.00068514794 0.92245686 -0.01807765
2.8897495 0.25372744 0.58757234 -1.3333151 -6.280411 2.3091571 -1.467461 -0.7638823
0.36498895 -3.2813692 -0.100155175 2.1043315 -7.3652444 2.401481 -0.027742833 -2.4476075
0.77966195 -0.3063991 0.81641376 -4.3560925 -1.2228782 -1.469188 -0.31792304 -2.7940927
-1.0218829 -2.2815752 -2.5878477 0.8825497 2.0994215 0.09766869 0.5151185 -3.3740757
0.3786857 0.7901806 0.33520702 0.019459143 -0.51273847 -3.8625038 0.47382742 -1.0554916
-4.6486664 -3.8771775 -0.18329698 0.09002838 0.1027571 -1.2037821 -0.10719197 -3.1343184

net.2.bias f4 [64]
00000000: 25ad dc3e 0ad8 da3e 1838 15be 83a2 5d3f
00000010: 36b6 28be 670d 2f40 f3e8 2340 bc23 ef3f
00000020: 51b2 063f 4df8 b1bd dc70 043f f6b6 033f
00000030: 47dd 2640 739c 443f d032 2f3f e6ac 5d3e
00000040: 9daf b93e 07f5 a13f 3c23 e1bf aff8 a73f
00000050: b8ab 2c3f 944a 3b3f 17ff 5c3d 0a3c 4040
00000060: aa7b 1cbf 0cf4 543f c454 54bd e20a b6bf
00000070: 5683 d6bf da91 c0bd fe65 8f3f a80b 1640
00000080: f21b 13be 9dfd 0abf 6e4c 1840 43c6 ff3e
00000090: dcce 00be b121 1640 8afd 453f 16bb 38be
000000a0: 2b94 3540 655a 4e40 7a35 2740 cbee 2b3f
000000b0: 0bd9 903f 993f 573e f4af b9bd 9a12 a0bc
000000c0: 291d 1c40 8792 3940 2a52 bb3e a221 f83f
000000d0: b761 083e 342e 0540 5041 903f 2a2b 893f
000000e0: 6efb 28bd 595e f73e 9877 043f a017 06be
000000f0: f19c b83f f8b9 5f3f 87e9 b63e 3e54 3540
0.4310085 0.4274295 -0.1457218 0.865761 -0.16475758 2.735193 2.561093 1.868278
0.5261584 -0.08689938 0.5173471 0.5145105 2.6072557 0.7680122 0.6843691 0.21647987
0.36266795 1.2652901 -1.7588878 1.3122767 0.6744952 0.7316067 0.05395421 3.0036645
-0.61126196 0.83184886 -0.05183865 -1.4222071 -1.675883 -0.09402819 1.1203 2.3444614
-0.14366129 -0.54293233 2.379665 0.4995595 -0.1257891 2.3458064 0.77339995 -0.18040118
2.8371685 3.2242672 2.612639 0.67161244 1.1316236 0.21020354 -0.090667635 -0.01954012
2.4392798 2.8995683 0.36586124 1.9385264 0.13318525 2.080945 1.1269932 1.0716298
-0.041255407 0.4831417 0.51744986 -0.1309495 1.4422895 0.8739314 0.35725042 2.8332667

net.4.weight f4 [4, 64]
00000000: 7bb7 1fc0 b6a7 cf3e f902 483d 6a7f a83f
00000010: bc57 9abd f747 2a3f 6322 a53d 805c 16c0
00000020: 983f 64c0 3890 013d 86b2 d63a 4def d8bf
00000030: 54a6 f33e 80b4 c23e 23b5 0cbf 3e70 9cbf
00000040: d5f0 3cc0 28e6 6bbe 72b1 2740 06f7 673f
00000050: 1205 82c0 ed17 fe3d a323 863d 1978 943f
00000060: 13a8 98bf 33b9 453f c070 4fbd f0f1 18c0
00000070: 2d55 13c0 7ca7 433d e4a4 003f 54da 593f
00000080: 51dd ad3c e4b6 853f 788d 013f e778 0240
00000090: 063e 70bd 1f53 bcbf d801 1f3f 5ea9 863d
000000a0: f130 453f c85f 493f a55a d7bf 0323 16be
000000b0: 49a6 c6bf b361 58c0 3733 483d b70b a83c
000000c0: ab00 b43e ffcf 4f3f 05b6 823f 99c9 793f
000000d0: 5e1e b93d db38 e13e 9491 963e fbcb 3940
000000e0: 7ff4 643d 51f6 793d e7c1 2dbe 7677 b13c
000000f0: 2099 1b3d a010 223f 664f 943f c827 363f
00000100: eb9b a33f 7a58 953d 95d9 c43d 6f55 943e
00000110: fbc0 7dbc 9577 823f 98b8 463f 49cd 9abf
00000120: aaff cd3f 6795 773d d3ea 6cc0 8186 3540
00000130: 9ccb d53e 67c2 38c0 512b 0c3f 4490 bebf
00000140: 2897 3c40 3865 ecbf cad3 50c0 d3b8 213f
00000150: 8a49 6140 01df 083f da31 a93c 24df a73f
00000160: 30c3 20be dfd1 d5bf 6805 743d f554 cabf
00000170: 8bf1 6fc0 f970 5cbc 51cd 13bf 1981 123e
00000180: bb90 3cbd b4f3 0dc0 1a7e a23f 4444 c2be
00000190: 78ab 0fbd ce12 54c0 d063 7b40 7c62 73bd
000001a0: f1ef c63f 6318 b13e 2538 5cc0 e2d8 f2be
000001b0: a454 6dbf fe79 4a3f 31d2 703d bd7f e83c
000001c0: e093 303f ac9b 933f ae6d 533e 6ee1 e7be
000001d0: efe2 29bb beeb d33f 083c d43f bce2 e93e
000001e0: c0ea 1bbc ea82 263e e0de 94bf 4948 ad3d
000001f0: 9751 18c0 d4ff 483f 13a1 aec0 2929 9d3e
00000200: 6e82 0d40 6524 a7c0 a85d d33c 89cd 99c0
00000210: 2115 9ebc e01c 0a3f b045 213f 6981 94bd
00000220: 8887 acbe d090 76bd 935f 9bbf 927c 2fbb
00000230: 01bd 583f bb29 74bf bada 303f 26ad d1be
00000240: 673e 4cbf 2b73 bc3d b272 ed3f f5d7 31be
00000250: 2720 2abf 092e c1bf 3add d33c e4d6 7e3f
00000260: 403b 0cc0 1ad7 04c0 0020 fabd bdad f0be
00000270: 2587 1240 6cf5 8d3d 0f12 90c0 6c48 5b3f
00000280: e777 91bd 8bf9 1540 ada7 313f 9dac 303f
00000290: 5868 fd3c e451 65bf 432d 88c0 6bcd f13d
000002a0: 44cb 293f 9d84 7f3f 0444 d5bf edf0 96c0
000002b0: 6162 59bf 7d96 e5be 5e8c 3d3b 6e61 a63d
000002c0: 80d1 ec3e cf36 be3e 730a babe 977a 653f
000002d0: 9df2 913e 22b2 f0be a20a 01c0 79c7 82c0
000002e0: 7b89 99bb f290 a2c0 fd68 9ebd a65c b23c
000002f0: c239 8cc0 11a0 95c0 5438 d33e 6401 a43f
00000300: 0374 2440 3011 1c3f 810e 5dbc c30e 1540
00000310: ff16 b63d d756 773f 7620 b33f 409a 2dbe
00000320: c367 a6be 956e 82bd 2d9f 4dc0 40f0 14bf
00000330: 643c 923f 3b68 edbf 361e 19c0 54aa a8bf
00000340: c8c2 f43e 8304 143d df41 6d40 50fc 23be
00000350: c9ab a4be 65da 9fc0 b1f2 c83c a96b 2f3f
00000360: ce9f 663f a31c 3e3f 48a8 bf3c 030b 46bf
00000370: c93f 3840 8ae0 8cba 380c 2940 eba8 f93d
00000380: 49c0 163c 98a4 68be 7937 fc3e f57e 4d3f
00000390: b4ce 26bd 1a7c 05c0 dc8f 6940 15c5 98bc
000003a0: 8628 f33e 5913 953f 1041 2ec0 ccdf ee3e
000003b0: a864 d6be 9535 b13e 5b7b 0ebd 4544 a33d
000003c0: bff8 a63f d57a 5b3f b5a9 f6be 7100 533f
000003d0: 5711 eabd 205a b8be c79e 53bf 4f51 48be
000003e0: a076 973d a5d6 483f 5171 a2bf 8c92 c83d
000003f0: 6cae fdbf 7f54 263f 81ee f6bf 677b fd3e
-2.4955738 0.4055764 0.04883096 1.3163884 -0.07536265 0.6651606 0.08063199 -2.3493958
-3.5663815 0.03163168 0.0016380108 -1.6948029 0.47587836 0.38028336 -0.5496389 -1.2221754
-2.9521992 -0.23037016 2.6202054 0.906113 -4.063119 0.12406907 0.06549766 1.1599151
-1.1926292 0.77235717 -0.050644636 -2.3897667 -2.3020737 0.047767147 0.50251603 0.8509877
0.021223696 1.0446439 0.5060649 2.0386293 -0.0586529 -1.4712867 0.6211219 0.06575273
0.77027804 0.78661776 -1.6824538 -0.14661793 -1.5519496 -3.380963 0.048876967 0.020513399
0.3515676 0.8117675 1.0211798 0.9757324 0.09038995 0.4398869 0.29407942 2.903075
0.055897232 0.06102592 -0.16968499 0.021663409 0.03798783 0.6330662 1.158673 0.7115445
1.2781957 0.07292266 0.09611813 0.2897143 -0.015487905 1.0192744 0.7762542 -1.2093898
1.6093647 0.060445216 -3.7018325 2.8363345 0.41756904 -2.8868654 0.54753596 -1.4887776
2.9467258 -1.846839 -3.2629266 0.63172644 3.5201135 0.53465277 0.020653654 1.3114972
-0.15699458 -1.6704673 0.05957547 -1.5807177 -3.7491176 -0.013454669 -0.5773516 0.1430706
-0.046036463 -2.2179995 1.2694733 -0.37942708 -0.035075635 -3.3136477 3.927967 -0.059420094
1.5541974 0.34588918 -3.4409268 -0.47431093 -0.92707276 0.79092395 0.058794204 0.028381223
0.6897564 1.1531882 0.20647308 -0.45289177 -0.0025922616 1.6556318 1.658082 0.45680797
-0.009516418 0.16260877 -1.1630516 0.08461053 -2.3799798 0.7851536 -5.4571624 0.30695465
2.2110858 -5.2231927 0.025801495 -4.8063397 -0.019297184 0.5395031 0.6299696 -0.072512455
-0.33697152 -0.060196698 -1.2138542 -0.002677713 0.846634 -0.95376176 0.6908375 -0.40952414
-0.7978272 0.09201654 1.8550627 -0.17367537 -0.6645531 -1.5092174 0.025862325 0.9954665
-2.1911163 -2.0756288 -0.12213135 -0.47007552 2.2894986 0.06931576 -4.5022044 0.8565738
-0.07102948 2.343356 0.6939648 0.69013387 0.030933544 -0.8957808 -4.255525 0.118067585
0.66325784 0.99811727 -1.6661382 -4.71691 -0.8491574 -0.44841376 0.0028922777 0.08124052
0.46253586 0.3715119 -0.36336097 0.8964018 0.28505412 -0.47010905 -2.016274 -4.0868497
-0.0046855784 -5.0801935 -0.07734869 0.021772694 -4.3820505 -4.6757894 0.41253912 1.2812924
2.5695808 0.60963726 -0.0134922275 2.329026 0.08891105 0.9661688 1.3994281 -0.16953373
-0.3250104 -0.06368748 -3.2128403 -0.5817909 1.142468 -1.8547434 -2.392469 -1.317698
0.47804856 0.036137115 3.7071455 -0.16014218 -0.32162312 -4.9954095 0.024529787 0.6852365
0.9008759 0.74262446 0.023395672 -0.7736055 2.8788931 -0.001074807 2.6413708 0.12190422
0.009201118 -0.22719038 0.49261072 0.80271846 -0.04072447 -2.0856996 3.6494055 -0.018648664
0.47491854 1.164653 -2.722721 0.46655118 -0.4187367 0.34611192 -0.03478561 0.07972006
1.3044661 0.857343 -0.4817635 0.8242255 -0.114290886 -0.3600626 -0.8266415 -0.19562267
0.07395673 0.7845252 -1.2690831 0.097935766 -1.9818854 0.6497268 -1.9291536 0.4950821

net.4.bias f4 [4]
00000000: 5e85 c73f fb66 f73f 055f a53f 135a 8c3f
1.5587575 1.9328302 1.2919623 1.0964988

net.0.weight f4 [64, 4]
00000000: 2c7b ae3e 685e 43bc 04c1 0ac0 898f 01bf
00000010: c6ca 773e b88f 513e 2a76 1fbf aa36 d83e
00000020: f208 08be a5e1 a1c0 002c 9d3f 7004 90c0
00000030: 7cab 893e a1f9 b2bd b24b ca3f f96a 9bbe
00000040: df89 af3d 7472 903c b19f 41bf 3f02 3ebd
00000050: 4c0e 58be 24da bcbd e440 85bf ed1c 2d3f
00000060: f450 97bf da11 a1bd a638 683e 8065 23bf
00000070: b514 0ebe 3029 9cc0 3802 ce3f ae33 37bf
00000080: c354 2fbe c726 133c 0166 36bf 5b43 abbe
00000090: c9ae f03c 29d4 3e3d 5db5 2b3e 3ac3 01bf
000000a0: a901 813e 56af a93e 56d7 f3be 2fa0 60be
000000b0: 6f6f 49bf 9273 ffbf 1c11 71bf 6737 173d
000000c0: 8ef4 843e bac2 40c0 51b9 eabf 54c0 1fbf
000000d0: 9b0d 8bbe c968 21bb 43eb 803f af60 62be
000000e0: 8ddb a3bd 36fb 27bd c303 423f a81b 2fbe
000000f0: b377 83bc f4ba aebe 1304 dc3d a76f 4dbe
00000100: 9cc9 40be d774 acbd 1a5f 1340 d0d9 73bf
00000110: 2d06 b43c 8409 9fc0 bbcb 0bbf bbbf 0dbf
00000120: 1616 273d 3577 623c 1dbe 26bf 35a3 45be
00000130: 30ed 65be 9a10 9dbe b908 edbf 9668 10be
00000140: 4d27 883d 9771 dfbd 26af 3140 18cb 37bf
00000150: 2cc0 1e3d 113f 07bd f70d 1a40 ea63 92bf
00000160: 915c 6ebf 72ac f5bf 74d9 eabd d709 59bf
00000170: a8df 013e 0de6 5f3d 6bf0 a6bf cf88 e9bd
00000180: 0d67 c8bd 8ee7 21be e1a4 b83f 3991 09bf
00000190: 4fd6 25bc 44d1 373d a6ef 6240 ce1e 12bf
000001a0: a7fa d33b bec6 c2be c4c3 dabe d05c 56be
000001b0: 2a97 b8be 7525 b1c0 8efa 943f 8eee 0dbf
000001c0: eb5e 1bbd 4e5c bbc0 2da4 cbbe acf8 373e
000001d0: 3dbf 36bd c566 473d e54f 9d3f 1927 63bf
000001e0: 009e b53a 5084 3ebe f0ea 0dbd 2479 adbe
000001f0: cd42 60be be9e b8bf 69e7 70bf e1f2 13bf
00000200: 1a73 3b3e 1942 973c f922 cc3e 6253 2cbe
00000210: 4d6a d4be 3e59 4ebd 1647 303f 0058 64bf
00000220: 2020 d7bd a354 d3c0 ff1d 82be ddd6 abbf
00000230: 0a16 82be e766 7d3d d604 5240 e533 6ebf
00000240: a25e 3d3c 2303 d6bd ec89 0440 517a bb3d
00000250: ff40 dc3d 973e 043e 0b29 983f 71d6 7cbd
00000260: c6f2 c03c 3d7b a7c0 66ef ffbe 7e47 b9bf
00000270: 5a5c 3f3d 522d 9fbc e60e 4e40 88cd 89be
00000280: 49c2 2a3e bae9 a2be 3377 ee3f 0139 72be
00000290: 0ec6 133f 0a8e 6fbe c7ad 09bf 2a29 283e
000002a0: 0382 7abd 827c 37c0 68a9 1b3f a280 063e
000002b0: ac83 8f3d 7262 39c0 af04 213f 824b 5abe
000002c0: befd a43c 1963 bdbd f1e9 4540 a781 aebf
000002d0: 130c 163c e79e bb3c 1c7f 9abe 5f3c 7cbe
000002e0: 06d7 8ebf db3d c6bf 54eb 443e 3f34 81be
000002f0: 963b ebbd e84f c1bd 96d8 3240 6d26 9ebf
00000300: fb83 cb3e 7d3c 4ebc d96d 1fbf d8aa cdbe
00000310: 589c 24bd 4e89 4c3c 015b b8bd 8f77 2cbc
00000320: 6316 42be 306c 15c0 5cee 1ebf 8bb8 46be
00000330: 682c 13bf c0a4 a93c 7446 a1bf ab88 51be
00000340: e6d3 35c0 3d0a 79bc ade3 ccbe 941c 7a3d
00000350: 62e8 4a3e 9cda 0a3e 6c1d 14c0 85a9 b2be
00000360: 021f 38be cb96 1a3d 3402 9dbe c33b 1ebe
00000370: b0d7 1abf 7857 3d3d 2a8e 08c0 f10c 36bf
00000380: 33ea cbbe cdad e3bd 265c 0a40 8fb5 9bbf
00000390: 4852 8e3d 0735 973c 1c31 46c0 6aac f33e
000003a0: 463d efbd c202 223c 309a 55bf 00b3 e2be
000003b0: 9e69 c03c 7e6d 7bbf 4fc9 643f 4b2f 19c0
000003c0: 5eac 17bf 2f96 293d a14f 423f a455 91bf
000003d0: 3b39 15bf 28f5 efbf 7309 e1bf 9f67 65bf
000003e0: fc1f d8bf dd8a 66ba 8c8a 13be 764b a4bd
000003f0: d476 17be 9ad7 fdbc 4a7f db3f c059 c8bf
0.34078348 -0.011924364 -2.1680307 -0.5060964 0.24198446 0.2046498 -0.6228968 0.42229205
-0.13284662 -5.0587945 1.2279053 -4.5005417 0.26888645 -0.08739019 1.580435 -0.3035505
0.08571219 0.0176327 -0.75634295 -0.04638886 -0.21099204 -0.092212945 -1.0410428 0.6762226
-1.182158 -0.07864733 0.2267786 -0.6382675 -0.13875087 -4.880028 1.6094427 -0.7156323
-0.17122178 0.008981413 -0.71249396 -0.33449826 0.029380219 0.04658905 0.16768403 -0.5068852
0.2519658 0.33141583 -0.47625226 -0.21936105 -0.7868566 -1.9957144 -0.9416673 0.03691807
0.2596783 -3.0118852 -1.8337804 -0.62402844 -0.27158818 -0.0024629107 1.0071796 -0.22107194
-0.0800086 -0.041011058 0.7578699 -0.17100394 -0.016048288 -0.3412701 0.107429646 -0.20062123
-0.18826908 -0.08420723 2.3026795 -0.9525423 0.021975601 -4.9699116 -0.54607743 -0.5537068
0.040792547 0.0138223665 -0.6513384 -0.1930054 -0.22453761 -0.30676728 -1.8518287 -0.14102396
0.06648121 -0.109103374 2.7763152 -0.7179427 0.038757488 -0.03301913 2.4071023 -1.1436741
-0.93109995 -1.9193251 -0.11467257 -0.8478064 0.12682974 0.054662753 -1.304212 -0.11403047
-0.097852804 -0.15810987 1.4425317 -0.5373722 -0.010121896 0.044877306 3.545877 -0.57078254
0.006469089 -0.38042253 -0.42727482 -0.20933843 -0.3605283 -5.5358224 1.1638963 -0.5544213
-0.037932318 -5.8550177 -0.39773694 0.17965955 -0.044615973 0.048681993 1.2290007 -0.88731533
0.0013856292 -0.1860516 -0.034647882 -0.33881485 -0.21900482 -1.4423444 -0.94103104 -0.5779248
0.18305627 0.018464135 0.39870432 -0.16828683 -0.4148735 -0.050378077 0.6885847 -0.8919678
-0.10504174 -6.6040816 -0.2541351 -1.3424946 -0.2540744 0.061865713 3.2815452 -0.93047935
0.011558207 -0.10449817 2.070918 0.091541894 0.107545845 0.12914501 1.1887525 -0.061727945
0.023553263 -5.2337937 -0.49987334 -1.4474943 0.046718933 -0.01943079 3.2196593 -0.2691462
0.16675676 -0.31818944 1.8630127 -0.23654558 0.5772408 -0.23394027 -0.5378079 0.16421953
-0.061159145 -2.8669744 0.6080537 0.13135007 0.07007536 -2.8966336 0.6289777 -0.21317866
0.020140525 -0.09247417 3.0924037 -1.3633317 0.009158152 0.022902919 -0.30175102 -0.24632405
-1.115937 -1.5487627 0.19230396 -0.25235173 -0.114859745 -0.09439069 2.7944694 -1.2355477
0.3974913 -0.012587664 -0.6227699 -0.40169406 -0.040188164 0.012483908 -0.090017326 -0.010526552
-0.18953852 -2.3347282 -0.6208246 -0.19406335 -0.57489634 0.020708442 -1.2599626 -0.20462291
-2.8410583 -0.015200195 -0.40017453 0.06106241 0.1981521 0.13559955 -2.3142958 -0.34894958
-0.17980579 0.037741464 -0.30665743 -0.15452485 -0.60485363 0.046225995 -2.133677 -0.71113497
-0.39827117 -0.11117134 2.1618743 -1.2164782 0.06949288 0.018457903 -3.0967474 0.4759248
-0.11681609 0.009888353 -0.83438396 -0.4427719 0.023487862 -0.98213947 0.8936967 -2.3935115
-0.59247386 0.04140299 0.75902754 -1.135426 -0.5829045 -1.8746691 -1.7581009 -0.8961124
-1.6884761 -0.0008794496 -0.1440832 -0.080222055 -0.14791423 -0.030986596 1.714822 -1.565239

net.0.bias f4 [64]
00000000: d265 3140 f4dd 85bf 25cf 4540 bd68 963f
00000010: ece9 4540 cd9e 8fbf 1678 eb3f b032 2d3f
00000020: 2e3e 6d40 4644 8340 29ee 1740 b194 813e
00000030: fce5 00c0 6ccc 3e3f 57ba f63f cf08 0bbf
00000040: 87e2 f43f 66ef ffba cee1 1a40 5cc7 ea3f
00000050: f06a 40c0 041b e53f 4dbf d83f 1658 04be
00000060: 282a 6c40 922d 06c0 9772 06be 23e2 df3e
00000070: 7698 e1be cb2e 1340 2a47 f3be 94c3 fd3f
00000080: 02f6 2e40 2f7a 7a3e 1954 a2b9 8661 eabf
00000090: 63a1 06c0 e535 fabf db62 c4ba b18c 26c0
000000a0: 159a f3bf 4ca7 11c0 73bc ccbf d801 593f
000000b0: d81c 1dbf 1bf1 2b40 fc06 b13f 394b 2240
000000c0: e681 a93f e748 3240 fa90 1240 57ef 0c40
000000d0: cecd 7e3f 1079 3abf 0451 e83f db38 5540
000000e0: 1a39 73c0 8cc7 29bf b28e 7740 5f5b 7e3f
000000f0: 77a0 b93f 5814 8e40 20bb 12bf de75 aa40
2.7718396 -1.045836 3.090768 1.1750714 3.0924025 -1.1220337 1.8396022 0.6765547
3.7069201 4.102084 2.3739111 0.25308755 -2.0140371 0.74530673 1.9275616 -0.54310316
1.9131631 -0.0019526302 2.420032 1.834209 -3.006527 1.789887 1.693338 -0.12924227
3.690073 -2.0965314 -0.1312965 0.43727216 -0.4406163 2.299731 -0.4751523 1.9825311
2.7337651 0.24460672 -0.00030961705 -1.8311012 -2.1036003 -1.9547697 -0.0014983075 -2.6023371
-1.9031397 -2.275836 -1.599501 0.8476844 -0.6137214 2.686591 1.3830256 2.5358412
1.3242767 2.7856996 2.2900987 2.2021081 0.99532783 -0.72840977 1.8149724 3.3315952
-3.8003602 -0.6632011 3.8680844 0.9935817 1.4502095 4.4399834 -0.5731678 5.326888

net.2.weight f4 [64, 64]
00000000: fb37 2cbf cfe5 7bc0 bb4b 87c0 ea43 0140
00000010: 835b bbbd 119d 83c0 12d1 ef3f 7c7f 763e
00000020: 0043 53be 172f e03e 0b56 fdbe 57b1 07c0
00000030: 9cbe 6e3e daa7 09bf 679c 673f c1e9 eabd
00000040: a913 4d40 0fdf 923d 2d76 9c3e fff3 08c0
00000050: caf8 2ec0 dac9 2040 8c39 d13f 7c0f 613e
00000060: 044a 17be 932d ccbe 3383 d83c 1938 56bf
00000070: 88f9 5b3f a82d 1c40 cc1c 0d3d 3b01 603f
00000080: becc bf3e 24e5 99be da94 c4be 3310 b93f
00000090: 22c1 3cc0 03ad 64bf a378 8dbe 3d85 403f
000000a0: 7bbe c5be 7f14 46bf 0da3 f9bf 8e68 95bd
000000b0: 5be5 6140 da65 833e 6431 34be bff1 4cc0
000000c0: 8214 cabb 8122 ac3e b2be 98be db8f 6c3b
000000d0: 49a8 f0be 62b6 8ac0 046f 9b3f 9fdb 2b3d
000000e0: c3bd 42c0 8b0c 0fc0 8838 893e 9ab4 10c0
000000f0: 59cc cd3f 28ad 9abe fb19 99bc 0c85 67c0
00000100: 2370 c4be ee7b c9c0 1406 243e d4ba a23f
00000110: de46 433e 106b ddc0 8c76 a73f f9de 343e
00000120: e950 28be e68e 8d3e 6a62 fcbe ea08 4d3f
00000130: 9b57 c9bd 39d4 a2be f2b0 073f 694f a2bd
00000140: 92c2 cf3f d4b5 a73e 4ef0 cc3e 5531 e2be
00000150: f00d d3c0 bb9e 5f3f 571a 1c3e e5c0 343e
00000160: 1398 143e e983 6cc0 9557 a5bd f942 b53f
00000170: cb86 9dc0 9399 da3f c480 b63d ee85 ff3e
00000180: ce5f 893e 8129 803e 0a51 3540 b7d7 17c0
00000190: 91e2 a0bf fbd8 0ebf 9b7b 83be b995 e2bf
000001a0: 0efc 80bf c0a2 e1bf 3ca1 00c0 fa84 c33e
000001b0: d342 1d40 4e21 70bd 90f1 aa3e 8909 aac0
000001c0: 97b8 8bbc 42fd 063f 3419 99be e74b 943f
000001d0: 20c5 a1bd a04f 66c0 3fa2 5f3f 701d 5fbe
000001e0: 0d1e bcbf ce5f 09c0 4fb0 9f3d e0d8 653f
000001f0: 3f5d 5e3f 3112 e4be f062 a23d 4ab1 7fc0
00000200: 6369 1b3d 6221 f5bd c186 eebc 381d 1bbe
00000210: a187 25be c5eb 24b7 08e8 a03c 3bb6 d93b
00000220: ce69 bfbd 0fc3 5f3d 7658 f5bc d234 bebd
00000230: ede3 e7bb 96b7 873a af42 85bc 4003 b5bd
00000240: 1394 9d3c a55a abbd 6c7b 15be 3f4a 04be
00000250: 88e3 f63d 50d0 a23d ac09 a93d b55d 313d
00000260: bf4e 563d e3c6 41bd bcdb 8cbd 9235 5a3d
00000270: a0a7 84bd 02c4 acbd c07f 23bd ea02 4e3c
00000280: ae95 8c3b 0cb9 9ebd 9276 b2bd b7ce 0cbb
00000290: a0f9 d2bd 42db bbbd 6d4c 3a3d a339 4bbd
000002a0: 211a b13d 0d1d f83d 5c24 193d daf2 053d
000002b0: a456 9bb8 95e9 6ebd 002a 19bd 002f e13a
000002c0: 098b 63bc dcb5 643d 8543 26bd e144 adbd
000002d0: 7af9 babd 0e48 b5bd c413 16bd e2ae 053d
000002e0: 8e8c 8d3d ce6a c33c 644a 1cbe 7c65 89bd
000002f0: a21d 3fbd d153 24bd 1390 4dbd 1806 16be
00000300: 4635 4bbf 5a92 0fc1 8da1 19c0 61d1 fb3f
00000310: ae01 af3e d4d5 25c1 ed8b a23f 9428 703f
00000320: 84a7 48be 0eed e23e 0f13 9fbe dbe7 cb3e
00000330: c703 933e 36c0 3e3c 8e51 6e3f 9017 94bc
00000340: 19a1 3940 dee8 813e 795a 183f 78aa aabf
00000350: 56f6 c8c0 505b 1440 71aa b9bf f68d 43bf
00000360: c43d bf3e b948 51c0 661e cdbd 6f78 0740
00000370: 30b0 ebc0 8151 1a40 f044 e3bc c690 1bc0
00000380: 3840 493f feaf 93be ee00 513f bbda 8ac0
00000390: 6e1f 9cbf 6d0e bcbf f0c6 a2be 386b 32c0
000003a0: 11e6 82bf e913 12c0 119f 25c0 a4d8 633f
000003b0: fc1c 0740 5866 d83d a444 063f e24c 57c0
000003c0: 6cb0 c23e 124b 4c3f c911 b13e 59ad f33c
000003d0: 8b88 01bf 7533 77c0 1d13 f83e 02f7 84bf
000003e0: e0c1 94c0 b223 78c0 3303 32be 515b b93d
000003f0: edbe f53d 7695 98bf db87 dbbd e6f6 47c0
-0.6727292 -3.9359014 -4.2279944 2.0197701 -0.09148314 -4.112923 1.8735678 0.24072069
-0.20631027 0.43785927 -0.49479708 -2.120199 0.23314899 -0.53771746 0.90473026 -0.11470366
3.204325 0.07171451 0.3055891 -2.1398923 -2.7339349 2.51232 1.6345687 0.21978563
-0.14774328 -0.3987852 0.026429748 -0.8367935 0.8592763 2.4402866 0.03445129 0.8750188
0.37460893 -0.30057633 -0.38394815 1.4458069 -2.949288 -0.89326495 -0.276311 0.75203305
-0.38621888 -0.77375025 -1.9502884 -0.07295333 3.5296237 0.25663644 -0.17596966 -3.202255
-0.0061669955 0.33620074 -0.2983299 0.0036096487 -0.4700339 -4.3347635 1.2143254 0.041957494
-3.0428321 -2.2351406 0.26800942 -2.261023 1.6077987 -0.30210233 -0.018689146 -3.6174955
-0.38366804 -6.296378 0.16017944 1.2713265 0.19070002 -6.919319 1.3083053 0.17663182
-0.16437115 0.27648085 -0.49293834 0.80091727 -0.098311625 -0.31802538 0.5300437 -0.079253025
1.6231253 0.3275591 0.40027088 -0.44178262 -6.5954514 0.8735158 0.15244423 0.17651708
0.14511137 -3.6955512 -0.080733456 1.4161063 -4.922704 1.7078117 0.08911279 0.49906868
0.26830906 0.25031665 2.8330712 -2.3725412 -1.2569143 -0.55799836 -0.2568024 -1.7701942
-1.0076921 -1.7627792 -2.009841 0.3818739 2.4572036 -0.05862551 0.33387423 -5.313664
-0.017055793 0.5273019 -0.2990204 1.1585664 -0.07898927 -3.59861 0.8735694 -0.21788573
-1.4696671 -2.1464725 0.077973 0.8978405 0.8686103 -0.4454513 0.07929027 -3.9951959
0.0379423 -0.11969258 -0.02911699 -0.15147865 -0.1616502 -9.830056e-06 0.019641891 0.006644038
-0.093463525 0.05462938 -0.029949408 -0.092874184 -0.0070767314 0.0010354395 -0.016267149 -0.088385105
0.019235646 -0.083668984 -0.14597863 -0.12918948 0.12055117 0.07949889 0.08253798 0.043302257
0.052321192 -0.047308814 -0.068778485 0.053273745 -0.064772844 -0.08435823 -0.039916754 0.012573937
0.004290304 -0.07750139 -0.08714022 -0.0021485516 -0.103015184 -0.091726795 0.04548304 -0.049615514
0.08647562 0.12114916 0.03738819 0.032702304 -7.407114e-05 -0.05832823 -0.03739357 0.0017180145
-0.013888129 0.055837497 -0.040591735 -0.08460403 -0.09129615 -0.08851634 -0.036639944 0.032637484
0.06911574 0.02385464 -0.15262753 -0.0670881 -0.04665912 -0.040118996 -0.050186228 -0.14650762
-0.79378164 -8.97323 -2.4004853 1.9673272 0.3418097 -10.364704 1.2698952 0.9381192
-0.19595152 0.44321483 -0.31069228 0.3982533 0.2871382 0.011642506 0.9309319 -0.018077642
2.9004576 0.25372976 0.5951305 -1.3333273 -6.2800703 2.3180733 -1.450514 -0.7638849
0.3735181 -3.2700636 -0.10015564 2.1167257 -7.3652573 2.4112246 -0.027742833 -2.4307113
0.78613615 -0.2884521 0.81642044 -4.3392005 -1.2197092 -1.4691902 -0.31792402 -2.787794
-1.0226461 -2.2824652 -2.5878336 0.8900244 2.111144 0.105663955 0.5244849 -3.3640676
0.38025224 0.7980205 0.34583881 0.029745745 -0.50598973 -3.8625157 0.48452082 -1.0387881
-4.6486664 -3.8771787 -0.17384033 0.0905062 0.11999307 -1.1920612 -0.10719272 -3.1244445

net.2.bias f4 [64]
00000000: 8751 db3e 77d8 da3e d837 15be e78a 5f3f
00000010: 15b6 28be 11d3 2e40 a286 2340 b8b6 ef3f
00000020: 1a8f 063f 02f8 b1bd ea70 043f ab8c 043f
00000030: ea8d 2640 46e3 443f 5615 303f 13ad 5d3e
00000040: 1e4f ba3e 5cec a13f 0523 e1bf 9b6f a83f
00000050: 8766 2d3f c7e4 3b3f 3fff 5c3d d03a 4040
00000060: 1607 1ebf cef2 553f 8054 54bd 7354 b6bf
00000070: 1883 d6bf 8491 c0bd 81a9 8e3f d241 1640
00000080: 9c1b 13be 4b12 0abf bc42 1840 a73a 013f
00000090: bece 00be 9953 1640 f458 453f deba 38be
000000a0: da94 3540 6a1b 4e40 c96c 2740 14ef 2b3f
000000b0: b905 913f c33f 573e caaf b9bd 5d12 a0bc
000000c0: b5bc 1b40 9663 3940 18a0 c03e bfab f73f
000000d0: 4a49 ff3d 0777 0540 932e 903f aee3 883f
000000e0: 39fb 28bd 6d5e f73e f277 043f 9317 06be
000000f0: 5a58 b73f 0037 5f3f 2451 b43e f64a 3540
0.42835638 0.42743275 -0.14572084 0.87321323 -0.16475709 2.7316325 2.5550923 1.8727636
0.52562106 -0.08689882 0.51734793 0.5177714 2.6024117 0.7690929 0.68782556 0.21648054
0.36388487 1.2650256 -1.7588812 1.3159059 0.6773457 0.7339596 0.05395436 3.0035896
-0.6172956 0.83573616 -0.051838398 -1.4244522 -1.6758757 -0.09402755 1.1145478 2.3477674
-0.14366001 -0.5393416 2.3790731 0.5048012 -0.12578866 2.3488524 0.77088857 -0.18040034
2.8372102 3.2204232 2.6160147 0.6716168 1.1329871 0.21020417 -0.09066732 -0.019540006
2.4333928 2.8967032 0.37622142 1.9349288 0.12465151 2.0853899 1.1264213 1.0694482
-0.04125521 0.4831423 0.5174552 -0.1309493 1.4323838 0.871933 0.35218155 2.8327003

net.4.weight f4 [4, 64]
00000000: e4b3 1fc0 02a8 cf3e 5e03 483d f3a3 a83f
00000010: bc57 9abd 46f4 293f 196b a23d abd5 16c0
00000020: 666a 64c0 9690 013d bfb2 d63a f4e4 d8bf
00000030: 7fcd f23e fc34 c13e 8e47 0abf e46f 9cbf
00000040: 4d22 3dc0 cb84 6ebe 88b1 2740 2299 663f
00000050: 731d 82c0 9166 013e ae23 863d 4935 943f
00000060: e674 98bf db1a 463f c070 4fbd 7819 19c0
00000070: 6b55 13c0 7ca7 433d 8a83 003f 6de1 583f
00000080: 39dd ad3c cb05 863f 3032 013f 778e 0140
00000090: 353e 70bd 8aad bcbf fbc8 183f aaa9 863d
000000a0: 3bf3 443f d6cd 483f bbb9 d7bf 6323 16be
000000b0: d254 c7bf ff61 58c0 0733 483d c40b a83c
000000c0: f452 b33e af9a 4f3f 8463 823f c64e 793f
000000d0: 8adb 8d3d 6d9f e03e a728 8f3e 1ef4 3940
000000e0: c0f4 643d 7df6 793d 44c2 2dbe e177 b13c
000000f0: 9898 023d 77eb 213f 01d3 933f f9b6 353f
00000100: 7e70 a33f a758 953d fed9 c43d c857 943e
00000110: 31c1 7dbc 3991 823f 48f9 463f 68d5 9abf
00000120: 6dc3 cd3f 8195 773d 08eb 6cc0 f0c8 3540
00000130: 8fa7 d63e c9e3 38c0 df67 0c3f 9d90 bebf
00000140: c775 3c40 a471 ecbf 03d4 50c0 d52b 213f
00000150: f925 6140 0399 093f e831 a93c cefe a73f
00000160: 9c2e 1fbe baf5 d5bf c905 743d c4f7 c9bf
00000170: 41f1 6fc0 0f71 5cbc 6b71 13bf afa1 123e
00000180: e590 3cbd eed9 0dc0 c79e a23f 8b0f c2be
00000190: 78ab 0fbd 0308 54c0 c06f 7b40 e562 73bd
000001a0: 3603 c73f 5ab9 b13e fa30 5cc0 01d9 f2be
000001b0: 917e 6dbf 3a7a 4a3f 41d2 703d 2c80 e83c
000001c0: acd9 303f 80b8 933f 29ec 573e 7aa2 e6be
000001d0: d03c fcbb 1ff7 d33f db80 d43f d3d8 ea3e
000001e0: c0ea 1bbc 3083 263e 2bdf 94bf 6448 ad3d
000001f0: 856b 18c0 9f49 493f a1a1 aec0 eea2 9d3e
00000200: 8ac7 0c40 8424 a7c0 035e d33c ccf8 99c0
00000210: 5f15 9ebc 0493 0a3f 7422 223f ca2f 94bd
00000220: d0e0 b1be f590 76bd 9f5f 9bbf 608a 1f3b
00000230: 04ba 593f acf1 75bf 17fc 2f3f 96ad d1be
00000240: 242d 4fbf db47 be3d f872 ed3f 70e3 39be
00000250: 3071 2bbf 1237 c1bf 5bdd d33c dc62 7f3f
00000260: cd21 0cc0 c75a 05c0 0020 fabd d3ba e7be
00000270: 8f87 1240 a2f5 8d3d 0c1c 90c0 d2db 5b3f
00000280: 1378 91bd d30b 1640 a447 323f 9f73 303f
00000290: 5868 fd3c d2a1 64bf 1e37 88c0 6ecd f13d
000002a0: c1e4 293f c136 803f 660c d5bf 3ff1 96c0
000002b0: 3adf 58bf dc96 e5be 128c 3d3b 9861 a63d
000002c0: 615f ee3e 4ec8 be3e 469a babe c48a 663f
000002d0: 325b 813e d7ab f1be 603b 01c0 c9ba 82c0
000002e0: 5089 99bb 0891 a2c0 5b69 9ebd c95c b23c
000002f0: 1a65 8cc0 47aa 95c0 49a1 d23e df40 a43f
00000300: 2050 2440 f810 1c3f 7c0e 5dbc 4894 1540
00000310: 1517 b63d 0e2f 793f 7398 b33f 1545 20be
00000320: fc63 a1be 776e 82bd 4e9f 4dc0 e3a8 16bf
00000330: 6a7d 923f d483 ebbf 2d6d 19c0 c0aa a8bf
00000340: 13d9 f93e 7b6a ee3c 2442 6d40 751a 0ebe
00000350: 10f2 a4be de00 a0c0 d2f2 c83c 548d 313f
00000360: 7c68 673f d650 403f 4ea8 bf3c 726e 46bf
00000370: 3540 3840 aee0 8cba 85d2 2940 d25c 0a3e
00000380: 6bc0 163c 2239 72be fa0e ff3e 0b68 513f
00000390: b4ce 26bd af1d 05c0 0c90 6940 d4c4 98bc
000003a0: 2f82 f73e 1e9f 953f 69aa 2dc0 34e0 ee3e
000003b0: b9ac d0be 7a35 b13e 3b7b 0ebd 5444 a33d
000003c0: 3799 a73f d560 5d3f 5ef9 febe bd25 543f
000003d0: 91e0 c3bd 0474 b2be a72c 51bf 2fe3 39be
000003e0: 7476 973d 4fd6 483f 6471 a2bf ba92 c83d
000003f0: abf1 fabf f43b 293f 184b f5bf 696c 003f
-2.4953547 0.40557867 0.048831336 1.3175033 -0.07536265 0.66388357 0.079305835 -2.3567913
-3.568994 0.03163203 0.0016380175 -1.6944871 0.47422406 0.37735736 -0.54015434 -1.2221646
-2.9552186 -0.23292844 2.6202106 0.9007741 -4.066095 0.12636782 0.06549774 1.1578761
-1.1910675 0.7738473 -0.050644636 -2.3921795 -2.3020885 0.047767147 0.5020071 0.8471897
0.021223651 1.0470518 0.50467205 2.0243204 -0.058653075 -1.474046 0.5968167 0.065753296
0.7693364 0.7843908 -1.6853555 -0.14661936 -1.557276 -3.3809812 0.04887679 0.020513423
0.35024226 0.81095403 1.018662 0.97385824 0.069266394 0.43871632 0.27960703 2.9055247
0.055897474 0.061026085 -0.16968638 0.021663608 0.031883806 0.63249916 1.1548768 0.7098232
1.2768705 0.072923 0.09611891 0.28973222 -0.015487955 1.0200568 0.77724123 -1.2096376
1.6075264 0.060445312 -3.7018452 2.8403893 0.41924712 -2.888903 0.54845995 -1.4887882
2.9446886 -1.847218 -3.2629402 0.6295751 3.5179427 0.537491 0.02065368 1.3124635
-0.15545124 -1.6715615 0.05957583 -1.5778737 -3.7491 -0.01345469 -0.5759494 0.1431949
-0.04603662 -2.2164264 1.2704705 -0.37902483 -0.035075635 -3.312989 3.9286957 -0.059420485
1.5547855 0.34711725 -3.4404893 -0.47431186 -0.9277125 0.7909275 0.058794264 0.02838143
0.6908214 1.154068 0.21086182 -0.45045835 -0.007697679 1.655979 1.6601824 0.4586855
-0.009516418 0.16260982 -1.1630605 0.08461073 -2.3815625 0.7862796 -5.45723 0.30788368
2.199679 -5.2232075 0.025801664 -4.8116207 -0.0192973 0.5413058 0.6333382 -0.072356775
-0.3474183 -0.060196836 -1.2138556 0.0024343953 0.8504946 -0.96071887 0.68744034 -0.40952748
-0.80928254 0.09291049 1.8550711 -0.18153167 -0.66969585 -1.5094931 0.025862386 0.9976022
-2.189563 -2.0836656 -0.12213135 -0.45259723 2.2895238 0.06931616 -4.5034237 0.85882294
-0.071029805 2.3444717 0.69640565 0.68926424 0.030933544 -0.8930942 -4.256728 0.11806761
0.66364676 1.001671 -1.6644409 -4.716949 -0.84715617 -0.4484166 0.00289226 0.08124083
0.46557143 0.37262195 -0.36445826 0.9005549 0.2526489 -0.47201416 -2.019249 -4.085301
-0.0046855584 -5.080204 -0.07734939 0.021772759 -4.3873415 -4.677036 0.41138676 1.2832297
2.5673904 0.6096339 -0.013492223 2.3371754 0.08891121 0.97337425 1.4030899 -0.15651353
-0.31521595 -0.06368726 -3.2128482 -0.5885145 1.1444523 -1.8399606 -2.3972886 -1.3177109
0.48798427 0.029103508 3.707162 -0.1387728 -0.3221593 -5.000106 0.024529848 0.69356275
0.90393806 0.75123346 0.023395684 -0.77512276 2.878919 -0.0010748112 2.653474 0.1351197
0.009201149 -0.23654607 0.49816114 0.8179938 -0.04072447 -2.0799367 3.649417 -0.018648542
0.4834151 1.1689184 -2.713526 0.46655428 -0.40756777 0.34611112 -0.03478549 0.07972017
1.3093632 0.8647588 -0.49799627 0.82870084 -0.09564317 -0.34854138 -0.8170876 -0.1815307
0.0739564 0.7845201 -1.2690854 0.09793611 -1.9605001 0.66107106 -1.9163542 0.5016542

net.4.bias f4 [4]
00000000: 65bb c73f 7ea8 f73f 3ca4 a53f 4c43 8b3f
1.5604063 1.9348295 1.2940745 1.0879912
