trained/trained_agent.pth (torch, 42386 bytes, 12 tensors)

net.0.weight f4 [64, 4]
0	0x3d36a276	0.04458853
1	0x3e686cc1	0.22697736
2	0xbfeed45d	-1.8658558
3	0x3ed52299	0.41627958
4	0xbe496e26	-0.19670925
5	0x3d5ac740	0.053412676
6	0xbcee1005	-0.029060373
7	0x3f7a6813	0.97815055
8	0x3e38a43e	0.18031403
9	0x3d9de2e9	0.07709295
10	0x3f143306	0.57890356
11	0xbddf6fee	-0.10910021
12	0xbe628a51	-0.22123076
13	0x3dde7ce9	0.108636685
14	0x3facecf5	1.3509814
15	0xbf06b83b	-0.52624863
16	0x3c131666	0.008977508
17	0x3deb796c	0.11497769
18	0xbf7bdd35	-0.9838441
19	0xbdc30117	-0.09521692
20	0x3e162ce3	0.1466556
21	0x3e088d3d	0.13335128
22	0xc01c5e52	-2.4432569
23	0x3efd8baa	0.49520618
24	0xbe432b74	-0.19059545
25	0xbede8696	-0.43462056
26	0xbf7c3307	-0.9851536
27	0xbf2b1459	-0.66827923
28	0xbea5cb64	-0.32381737
29	0xbf52d9f5	-0.82363826
30	0x3fbfbb05	1.4978949
31	0xbf89cd98	-1.0765867
32	0x3e9160ee	0.28394264
33	0xbddd3762	-0.10801579
34	0xbfc5655e	-1.542156
35	0xbd5cc49f	-0.05389845
36	0x3db52073	0.0884408
37	0xbc6ca917	-0.014444611
38	0x3e9b0ebe	0.30284685
39	0xbe25b6c1	-0.16182996
40	0xbdc37541	-0.09543849
41	0xbe93087a	-0.28717405
42	0xbfd58e45	-1.6684042
43	0xbd0e0fad	-0.03468292
44	0x3c202526	0.009774482
45	0x3e5ac584	0.21364409
46	0x3f6b8f57	0.92015594
47	0xbe9607c3	-0.29302797
48	0x3d867da3	0.06566932
49	0xbf34fa47	-0.7069439
50	0xbe134ae8	-0.14384043
51	0xbf3e73c0	-0.7439537
52	0xbe594dd6	-0.21221098
53	0x3d7e1fec	0.06204216
54	0x3eadd0a1	0.33948234
55	0xbf452553	-0.7701008
56	0xbe32c5fc	-0.17458338
57	0xbf124cf2	-0.5714866
58	0xbc10a2ba	-0.00882786
59	0xbf9b5448	-1.2135096
60	0x3eaccb7f	0.33749005
61	0xbf83c3f9	-1.0294181
62	0xbfc223ec	-1.5167212
63	0xbf149415	-0.58038455
64	0xbd6d5de9	-0.057950888
65	0xbf3c0c71	-0.73456484
66	0x3fea77fa	1.8317864
67	0xbfd5ac73	-1.6693252
68	0x3d65205c	0.055939063
69	0x3d771d67	0.060330775
70	0x3d422ebc	0.04740785
71	0xbe3579ec	-0.17722291
72	0xbe4aa6f2	-0.19790247
73	0xbed29dd1	-0.4113603
74	0xbf27f08f	-0.6560144
75	0xbf7c5005	-0.985596
76	0xbe2247d6	-0.15847716
77	0x3e582ce3	0.21110873
78	0x3ebdf475	0.37100568
79	0x3e0988d3	0.134311
80	0x3c6351e8	0.013874508
81	0xbe5d8b94	-0.21635276
82	0x3ff36c23	1.9017376
83	0xbeb750e9	-0.35803917
84	0xbf1256e1	-0.57163817
85	0xbf006fb8	-0.5017047
86	0x3d9e9558	0.07743329
87	0xbfa31315	-1.2740198
88	0xbf0b1800	-0.54333496
89	0xbeb0ced7	-0.34532806
90	0xbff11a69	-1.8836185
91	0xbfaa1307	-1.3287057
92	0x3d21bfb9	0.03948948
93	0x3e841c0c	0.25802648
94	0xbecee8e9	-0.4041207
95	0xbe2e70b2	-0.17035177
96	0xbed7e231	-0.42164758
97	0xbefd9dcc	-0.49534452
98	0x3fe87eff	1.8163756
99	0xc009c276	-2.152494
100	0xbe4dcbeb	-0.2009732
101	0xbef4467d	-0.47710028
102	0x3fa446c6	1.2834098
103	0xbf278a45	-0.6544536
104	0xbc1480b6	-0.00906389
105	0xbeaede6e	-0.34154075
106	0xbee0a161	-0.43873122
107	0xbe8cf83a	-0.27533132
108	0xbeb9aaff	-0.36263272
109	0xc0b98aa8	-5.798176
110	0x3f5f02c8	0.8711362
111	0xbf6f8276	-0.9355844
112	0xbe756b23	-0.2396665
113	0xc087eea4	-4.247881
114	0xbf794e22	-0.97384846
115	0xbf4a7239	-0.7908054
116	0x3d9be140	0.076113224
117	0xbf58b8d6	-0.8465704
118	0xbfbb3c3a	-1.4627755
119	0xbe5d58b3	-0.21615867
120	0x3ab59e00	0.0013856292
121	0xbe3e8450	-0.1860516
122	0xbd0deaf0	-0.034647882
123	0xbead7924	-0.33881485
124	0xbd09283f	-0.033485647
125	0xbfcd93de	-1.606075
126	0xbfd25f54	-1.6435342
127	0xbeacee21	-0.33775428
128	0x3e5613cc	0.2090599
129	0xbbc69eab	-0.006061395
130	0x3f9b8848	1.2150965
131	0xbe321379	-0.1739024
132	0xbc91c268	-0.017792895
133	0x3f714c63	0.9425718
134	0xbe542911	-0.2071879
135	0x3c3c343c	0.011487063
136	0xbedff592	-0.43742043
137	0xc083a873	-4.1143126
138	0xbf9cf11f	-1.2261084
139	0xbf391a71	-0.7230597
140	0xbf03d31e	-0.51494014
141	0xbe4f5a6c	-0.20249337
142	0x400021c1	2.0020602
143	0xbf15dddd	-0.5854166
144	0x3d84dcea	0.064874485
145	0x3d8e3a50	0.06944716
146	0x3fe20b22	1.7659647
147	0x3e78e0d3	0.24304514
148	0x3dd4a822	0.10383631
149	0xbe357d57	-0.17723595
150	0xbf30d6ea	-0.6907793
151	0xbff384ac	-1.9024863
152	0x3c970451	0.018434675
153	0x3e09c419	0.13453712
154	0x3f048a72	0.5177375
155	0xbe20057d	-0.15627094
156	0xbe097679	-0.134241
157	0xbe5b191e	-0.213963
158	0x3f9d7b7a	1.2303307
159	0xbfe11b80	-1.7586517
160	0xbd15a167	-0.03653088
161	0xbc919284	-0.01777006
162	0x3fcfd262	1.6236079
163	0xbf80a535	-1.0050417
164	0x3f0daff2	0.55346596
165	0x3c8745b9	0.016512739
166	0xbfd067a2	-1.6281626
167	0xbd8c1063	-0.06839063
168	0xc0381838	-2.8764782
169	0xc091ded5	-4.558451
170	0xbf92aecf	-1.1459597
171	0x3e20aad7	0.1569017
172	0x3d5aa973	0.053384256
173	0xbfa04ae4	-1.2522855
174	0xbeeb24cc	-0.4592651
175	0xbf2b2758	-0.6685691
176	0xbe7f456e	-0.24928829
177	0xbe95b044	-0.29236042
178	0x4038b3db	2.8859775
179	0xbfad04ef	-1.3517131
180	0xbe65fb83	-0.22459225
181	0x3dc3af76	0.09554951
182	0x40027892	2.038609
183	0xbe7a9645	-0.24471386
184	0x3e9033ec	0.28164613
185	0x3e4cf476	0.2001513
186	0x3f3bc689	0.73349816
187	0xbf025346	-0.50908315
188	0x3dc74bc1	0.09731246
189	0x3d7b5633	0.061361503
190	0x3fcfac98	1.6224546
191	0x3daa72b9	0.08322663
192	0xc037726f	-2.8663595
193	0x3e898972	0.26862675
194	0x3e0d016a	0.1377007
195	0x3db55d48	0.088556826
196	0xc017ea15	-2.3736622
197	0xbe3758e0	-0.17904997
198	0xbf294c1c	-0.6613176
199	0xbea187c7	-0.31548902
200	0xc044d87a	-3.0757127
201	0xbe116843	-0.14199929
202	0x3f1d6bde	0.6149272
203	0x3ded9b90	0.11601937
204	0xbde45285	-0.11148552
205	0xbfa3b7bb	-1.2790445
206	0xbfa4a61a	-1.286319
207	0xbfc32415	-1.5245386
208	0x3d82db2a	0.063894585
209	0xbdb140ca	-0.08654936
210	0x40344b04	2.8170786
211	0xbec508bb	-0.38483223
212	0x3f398050	0.72461414
213	0xbf6b93c9	-0.9202238
214	0xbf970285	-1.1797644
215	0x3e6181ca	0.22022167
216	0xbf919719	-1.1374236
217	0xbe898793	-0.26861247
218	0xbf29d4aa	-0.66340125
219	0xbf0eb80d	-0.5574959
220	0x3e2bcb7f	0.16776846
221	0x3e743ac8	0.23850548
222	0xbf45155d	-0.7698572
223	0xbea76d19	-0.32700422
224	0xbd364a9d	-0.04450475
225	0xbe0ea318	-0.13929403
226	0x3fa2e169	1.272504
227	0xbce28085	-0.027649174
228	0xbea1defe	-0.31615442
229	0xbd8cb524	-0.06870487
230	0xc008c5fa	-2.1370835
231	0x3f235ad4	0.6381047
232	0x3c1941cf	0.009354069
233	0x3de206fe	0.1103649
234	0x3f4abfde	0.79199016
235	0xbe43933e	-0.19099137
236	0xbd026bb1	-0.031840984
237	0x3df8e439	0.12152905
238	0xbf942785	-1.157456
239	0xbfb99479	-1.4498435
240	0xbf0a0e52	-0.539281
241	0xbf86e430	-1.0538387
242	0x3cb23af8	0.021756634
243	0xbfcb6305	-1.5889593
244	0xbff89763	-1.94212
245	0xbfb2165c	-1.3913074
246	0xbf58fdee	-0.84762466
247	0xbe366bd4	-0.1781457
248	0xbd1537d2	-0.036430188
249	0x3e8a7d21	0.2704859
250	0xbf859797	-1.0436887
251	0xbed0aeda	-0.407584
252	0xbf26d3cc	-0.65166926
253	0xc007dc91	-2.1228373
254	0xbf6abafd	-0.9169157
255	0xbef151ae	-0.4713263

net.0.bias f4 [64]
0	0x4061d9c7	3.528917
1	0xc014aa24	-2.3228846
2	0x3ffda317	1.9815396
3	0x3febcefc	1.8422542
4	0x40769326	3.8527312
5	0xc05530d6	-3.3311057
6	0x40051b2d	2.0797837
7	0x3f91491c	1.1350436
8	0x4055ac54	3.338643
9	0x40384b74	2.8796053
10	0x3fb94e7e	1.4477079
11	0x3f16104b	0.5861861
12	0xbef2061d	-0.4727029
13	0xbf089dac	-0.5336559
14	0x3f2b2b12	0.66862595
15	0xbfab4ef4	-1.338347
16	0x3f85ed2d	1.0463005
17	0x404f7b2b	3.2418926
18	0x4013301a	2.299811
19	0x40405ce3	3.0056694
20	0xc00f9b7b	-2.2438648
21	0x3f80e258	1.0069075
22	0x3f8eb638	1.1149359
23	0x3d9f3167	0.077730946
24	0x408214c5	4.0650353
25	0xc02589f3	-2.5865448
26	0xbd6ea751	-0.058265034
27	0xbf722e7a	-0.9460217
28	0x4025520c	2.5831327
29	0xbf871d50	-1.055582
30	0xbef34720	-0.47515202
31	0x3f868229	1.0508472
32	0x404419e4	3.0640802
33	0xbf05dc4f	-0.5228929
34	0x3f90fa93	1.1326469
35	0x3e4771bc	0.1947698
36	0xc026ad58	-2.60433
37	0xbf68e0e4	-0.90968156
38	0x4031328b	2.76871
39	0xc01f9d1a	-2.4939637
40	0x3fd5682d	1.6672417
41	0xc00cd7c0	-2.2006683
42	0x3f27f95c	0.6561487
43	0xbac01ac1	-0.0014656411
44	0xbe2ea85f	-0.17056416
45	0x3f54987f	0.8304519
46	0x3f4b6e3e	0.7946509
47	0xbfdb8ffb	-1.7153314
48	0xc022f1a0	-2.5459976
49	0x4073077b	3.7973316
50	0x3ebd505e	0.36975378
51	0x403155de	2.770866
52	0xbfe47005	-1.7846686
53	0xc0176555	-2.3655598
54	0x3fdecb26	1.7405746
55	0x404143e9	3.01977
56	0xbfc8d8a6	-1.5691116
57	0x3f95e06d	1.1709114
58	0x406133f5	3.5187962
59	0xb9969546	-0.00028721447
60	0x3f940163	1.1562923
61	0x40483350	3.1281319
62	0xbf37da70	-0.71817684
63	0x403f0484	2.9846506

net.2.weight f4 [64, 64]
0	0xbf8295bc	-1.0201945
1	0xbfd74cfd	-1.682037
2	0xbc914772	-0.017734263
3	0x3f07e1fa	0.5307919
4	0xbedcdd0f	-0.43137404
5	0xc0a0bb95	-5.022898
6	0x3fc242f4	1.5176682
7	0x3f827173	1.0190872
8	0xbf47a9a5	-0.7799323
9	0x3dd2284a	0.10261591
10	0xbfdab71a	-1.7087128
11	0xbd53cd4b	-0.051709455
12	0x3dabfb6d	0.08397565
13	0xbf0d4562	-0.55183995
14	0x3f88eb99	1.0696899
15	0xbe2675b4	-0.16255838
16	0x4001096e	2.0162005
17	0xbd57ab35	-0.05265351
18	0x3e5de6dd	0.21670099
19	0xbf1294da	-0.5725838
20	0xbf382d8a	-0.7194449
21	0x3f802223	1.0010418
22	0x3eb86b13	0.3601919
23	0xbf6f9039	-0.9357944
24	0xc01ffa35	-2.4996464
25	0x3f9c9d97	1.2235593
26	0x3e06ab8d	0.13151379
27	0x3ed784b4	0.42093432
28	0x3decfe37	0.11571925
29	0xbdc58b9f	-0.09645771
30	0x3d0d1ccc	0.03445129
31	0x3f96fbda	1.1795609
32	0x3ecd27d9	0.40069464
33	0xbf573e62	-0.84079564
34	0xbef3dd66	-0.4762985
35	0xbf3c3a2e	-0.73526275
36	0xc04141e3	-3.0196464
37	0x3d909d74	0.07061282
38	0x3e5e672c	0.21719044
39	0x3fbcea55	1.4759012
40	0xbfc2f15c	-1.5229907
41	0xbf88f88f	-1.0700854
42	0xc02fcde3	-2.7469413
43	0xbe92478b	-0.28570208
44	0x3fd1d090	1.6391773
45	0x3e444d2b	0.19170062
46	0x3dce9ba3	0.10088279
47	0xbf85e561	-1.0460626
48	0xbe2c21c8	-0.16809762
49	0x3dd3e7b6	0.1034693
50	0xbc71694c	-0.014734577
51	0xbeb4b316	-0.35292882
52	0x3f1d185c	0.61365294
53	0xbff441ba	-1.9082558
54	0x3fb97312	1.4488242
55	0xbe24c6f0	-0.16091514
56	0xbf1c6ca4	-0.6110327
57	0xc0275a5a	-2.6148896
58	0x3e62aaa6	0.2213541
59	0x3ed7abe0	0.42123318
60	0xbf32f4a5	-0.6990455
61	0xbf275091	-0.6535731
62	0xbecb078c	-0.39654195
63	0x3f85b302	1.0445254
64	0xbf3848cd	-0.71986085
65	0xc1033c8a	-8.20228
66	0x3e84f240	0.25966072
67	0x400969e2	2.1470876
68	0x3e7cdbbe	0.246932
69	0xc104dcc0	-8.303894
70	0x3f9fab30	1.2474117
71	0x3f9177b1	1.1364652
72	0xbe537faa	-0.20654169
73	0x3f37660a	0.71640074
74	0xbf61e34f	-0.8823747
75	0x3f296c34	0.6618073
76	0xbedbe055	-0.4294459
77	0xbfd6da42	-1.6785357
78	0x3f9579cd	1.1677796
79	0xbcb5a371	-0.022172661
80	0x3fe206ca	1.7658322
81	0x3f20dd22	0.6283742
82	0x3f8d60de	1.1045187
83	0xbf1316aa	-0.5745646
84	0xc0f788d3	-7.735452
85	0x3fa058ed	1.2527138
86	0x3f8679a8	1.0505877
87	0xbd9bc41e	-0.07605766
88	0xc09c5a0c	-4.885992
89	0xc05bcf97	-3.4345453
90	0xbd1b5120	-0.037919164
91	0xbef27f4c	-0.47362745
92	0x3c3db535	0.011578848
93	0x3ef735e2	0.48283297
94	0x3db680c4	0.08911279
95	0x3fb233b6	1.3922031
96	0x3edfa095	0.43677202
97	0xbe7611f4	-0.24030286
98	0x3f850c6a	1.0394413
99	0xc016ed63	-2.358239
100	0xc0abe645	-5.371859
101	0x3dd54823	0.104141496
102	0x3f4395b6	0.76400316
103	0xbf829414	-1.020144
104	0xc08a25b4	-4.3171024
105	0xbffaf201	-1.9605104
106	0xbfb0eb8e	-1.3821886
107	0xbe216ec4	-0.1576491
108	0x3f83580e	1.0261247
109	0x3f90ec29	1.132207
110	0xbd91609f	-0.07098507
111	0xc06d87d1	-3.7114146
112	0xbfb84979	-1.4397422
113	0x3fcc2ac6	1.5950553
114	0x3fbd1410	1.4771748
115	0x3fc78913	1.5588707
116	0xc0867e05	-4.2028832
117	0xc0e6990b	-7.206182
118	0x4003c43c	2.0588522
119	0x3ea9f9d2	0.3319841
120	0xc02500ce	-2.578174
121	0xbfe4eacb	-1.7884153
122	0x3ec029c3	0.37531862
123	0x40341669	2.8138678
124	0x3f653e92	0.895486
125	0x3f0e0d8b	0.55489415
126	0xbf1c9211	-0.6116038
127	0x3fa62f8e	1.2983263
128	0x3ea1353c	0.31485927
129	0x3e4600aa	0.19336191
130	0xbf8742a6	-1.0567214
131	0xbf13cb0b	-0.57731694
132	0x3e3d0d44	0.18462092
133	0xbec4269d	-0.3831071
134	0xc095279b	-4.6610847
135	0x3dff04e0	0.12452102
136	0x3e5922cb	0.21204679
137	0x3ef99ce3	0.48752508
138	0xbe1f29a8	-0.15543234
139	0xc009690b	-2.1470363
140	0xbfd96557	-1.6984051
141	0x3e43d3b4	0.19123727
142	0x3f2799ba	0.65468943
143	0x3fafe44a	1.3741543
144	0xbe2d3e56	-0.1691831
145	0xbf1d642b	-0.6148097
146	0xbfcc2133	-1.5947632
147	0x3e20393c	0.15646833
148	0x405f42fc	3.4884634
149	0x3f2972bb	0.6619069
150	0x3e0466e6	0.12929878
151	0x3e12f6ef	0.1435201
152	0x3f3a9a55	0.7289174
153	0x3fea4377	1.8301839
154	0xbd8cdbbc	-0.068778485
155	0xc0469c2e	-3.1032825
156	0x3f6157d4	0.8802464
157	0x3faf155f	1.3678397
158	0xbd237fc0	-0.039916754
159	0xc07a4400	-3.9104004
160	0xbeb09f1b	-0.34496388
161	0x3dd23f74	0.10266009
162	0xbeaf2ce7	-0.34213945
163	0x3fdf7c16	1.7459743
164	0x3cc3340b	0.023828527
165	0x3ebf058f	0.37308928
166	0xbf0a3512	-0.5398723
167	0x3ffc1e36	1.969672
168	0x3f5b713c	0.85719657
169	0x3f3804fc	0.71882606
170	0xc02d3e1b	-2.7069156
171	0x3f00aca7	0.50263447
172	0x3fa1475d	1.2599903
173	0xbe143429	-0.14473023
174	0xbde5822c	-0.11206469
175	0x3fe31ec9	1.774377
176	0x3f0f65ff	0.5601501
177	0xc02c151b	-2.6887882
178	0x3d82a042	0.06378223
179	0xc011d04f	-2.2783391
180	0x40175f8e	2.3652072
181	0xbf0e766c	-0.5564945
182	0xbff6ed74	-1.9291215
183	0x3c98925e	0.01862448
184	0x3f28b0da	0.65894854
185	0x3eb75493	0.35806713
186	0x3de76627	0.11298781
187	0x3f5fa6fe	0.87364185
188	0xc0835971	-4.104668
189	0xbfc0350a	-1.5016186
190	0x3fd9c740	1.7013931
191	0xbf2f07e0	-0.6837139
192	0x3cc687b0	0.024234623
193	0xbf99edd5	-1.2025706
194	0xbee89690	-0.4542737
195	0xbede26b7	-0.43388912
196	0x3f85f492	1.0465262
197	0xbf8abe42	-1.0839312
198	0x3ec816fb	0.39080033
199	0xbf33f01b	-0.70288247
200	0x3e1c7ab2	0.1528118
201	0x3ee02159	0.43775442
202	0xbfe1020f	-1.7578753
203	0x3e444459	0.19166698
204	0xbf20bcda	-0.62788165
205	0xc00415fd	-2.063842
206	0xbf8574f2	-1.0426314
207	0x3efcc6ca	0.49370414
208	0x3fac5540	1.3463516
209	0x3eb3aa29	0.3509076
210	0x3ea86432	0.32888943
211	0xbea7f109	-0.32801083
212	0xc08fc7e3	-4.49315
213	0xbfb96e9e	-1.4486883
214	0x3c1d7856	0.00961121
215	0x3e966f72	0.293819
216	0xc01e8b45	-2.4772503
217	0xbfb53dea	-1.415952
218	0xbd8085db	-0.06275531
219	0x3fa1f028	1.2651415
220	0xbfaa52d7	-1.3306531
221	0x3f0881ca	0.5332304
222	0xbce344f0	-0.027742833
223	0x3fa372de	1.276943
224	0x3e0e6f82	0.13909724
225	0x3f28c0a9	0.65918976
226	0xc01aa821	-2.4165118
227	0xc0058371	-2.0861475
228	0xbfee24be	-1.8604963
229	0x3f06ada6	0.52608716
230	0x3e47002f	0.19433664
231	0xbf5b1228	-0.8557458
232	0xbfd7d232	-1.6861022
233	0xc0195b46	-2.396196
234	0xc02d4d53	-2.7078445
235	0xbeccd6a3	-0.40007505
236	0x3f12a6bf	0.57285684
237	0x3e40685e	0.18789813
238	0xbfd2bf15	-1.6464564
239	0xc02425cb	-2.5648067
240	0xbfa41479	-1.2818748
241	0x3f5e3d0d	0.86811906
242	0xbfc91b9b	-1.571155
243	0x3f921ce3	1.1415066
244	0xc03efee1	-2.9843066
245	0xbfd44d68	-1.6586123
246	0x3ea11457	0.3146083
247	0x3f1ed1d1	0.62038904
248	0xc05843e3	-3.3791435
249	0xbf417472	-0.75568306
250	0x3e2166be	0.1576185
251	0x4065b765	3.5893185
252	0x3df1f67d	0.11814592
253	0x3f81fe68	1.0155764
254	0x3f04f3e3	0.5193464
255	0x3f1250e1	0.5715466

net.2.bias f4 [64]
0	0x3e7ab46f	0.24482892
1	0x3efd0a72	0.49422032
2	0x3c8fa964	0.017536826
3	0x3f3f1a7e	0.746498
4	0xbe306234	-0.17224962
5	0x4023cfb4	2.5595522
6	0x4032fbb9	2.796614
7	0x3f2c3c28	0.6727929
8	0x3f327a17	0.69717544
9	0x3feac4b7	1.8341283
10	0x3f85087e	1.0393217
11	0x3fda657a	1.7062218
12	0x3e8665ae	0.2624945
13	0x3fb5dfc1	1.4208909
14	0x40050749	2.0785697
15	0xbee050fd	-0.4381179
16	0x3f863728	1.0485582
17	0x3e3ed845	0.18637188
18	0xbf375e7c	-0.71628547
19	0x3fea62c5	1.8311392
20	0xbeb5c59e	-0.35502332
21	0x3e6a76b9	0.22896852
22	0x3d50835c	0.050906524
23	0x400b4c60	2.1765366
24	0xbde0e6df	-0.10981535
25	0x3fa7cd3c	1.3109508
26	0xbd552a73	-0.052042436
27	0xbece244a	-0.4026206
28	0xbfa9cb5e	-1.3265188
29	0xbd31a7a8	-0.04337278
30	0x3f3e0dc5	0.7423976
31	0x4007091f	2.1099317
32	0xbdd4dbb4	-0.103934675
33	0xbe0dcb32	-0.13847044
34	0x3fac4dd4	1.3461251
35	0xbffe3b5b	-1.9861864
36	0xbe1c33d8	-0.15254152
37	0x3f3a2e72	0.7272712
38	0xbdff927d	-0.12479112
39	0xbed15874	-0.40887797
40	0x40311cf6	2.7673926
41	0x3db44a7d	0.0880327
42	0x3f3c0a29	0.73453003
43	0x3f8291ab	1.0200704
44	0xbe6838f9	-0.22677983
45	0xbf47143f	-0.7776527
46	0xbd5b2d34	-0.053509906
47	0xbd48aa3c	-0.048990473
48	0xbe35aadf	-0.17740963
49	0x402253aa	2.5363564
50	0xbfefe736	-1.8742435
51	0xbc78b342	-0.015179457
52	0x403a9aab	2.9156902
53	0xbe27d37b	-0.16389267
54	0x402d1c5c	2.704856
55	0x3f5b1cac	0.85590625
56	0xbce4ac73	-0.027914261
57	0x3f1fcde7	0.6242356
58	0x3fd56a23	1.6673015
59	0xbda1ac84	-0.07894233
60	0x3fabdcfc	1.3426814
61	0x3f43b366	0.76445615
62	0x3ec58545	0.3857824
63	0xbcfd71c9	-0.030938046

net.4.weight f4 [4, 64]
0	0xc030105c	-2.7509985
1	0x40091a5b	2.1422336
2	0x3ee66c0a	0.45004302
3	0xbe7bf8d0	-0.24606633
4	0xbc99113d	-0.018684978
5	0x3f342b0a	0.7037817
6	0x3f62e53e	0.88631046
7	0x3f73fb05	0.953049
8	0xc03866a3	-2.8812644
9	0xc0499e2e	-3.1502795
10	0x40362064	2.845727
11	0x3f074f8b	0.5285575
12	0x3d155f4d	0.03646784
13	0xbf69628f	-0.91166013
14	0x3f90c722	1.131077
15	0xbf70e4e0	-0.94099236
16	0xc013d324	-2.309762
17	0x3f54cd12	0.8312541
18	0xbe9d662d	-0.30742016
19	0x3fb9b880	1.450943
20	0xbe88ba83	-0.26704797
21	0x3ee72996	0.45148915
22	0x3d0c577c	0.03426312
23	0x3f110763	0.56651896
24	0xbd784363	-0.06061114
25	0xc00eefb8	-2.2333813
26	0xbd4f70c0	-0.050644636
27	0xc022537c	-2.5363455
28	0xbf16cd94	-0.5890744
29	0x3d43a77c	0.047767147
30	0xbf6f8f56	-0.9357809
31	0x3f6f2127	0.9340996
32	0x3cca96d0	0.024730116
33	0x3d6b9270	0.0575127
34	0xbf8b952e	-1.0904901
35	0xbf1a58d7	-0.6029181
36	0xbd703e04	-0.058652893
37	0x3f8c2a25	1.0950361
38	0xc0409d43	-3.0095985
39	0x405b0bfe	3.422607
40	0x3f133bf3	0.5751335
41	0xc01a3517	-2.4094903
42	0xbf2268d3	-0.634412
43	0xbf4f34a6	-0.8093971
44	0xc0039e62	-2.056542
45	0x40a1a193	5.0509734
46	0x3aad2e00	0.0013212562
47	0x3cd02a95	0.02541093
48	0xbc8bb96e	-0.017056193
49	0x3f622a1f	0.8834552
50	0x3eff26a6	0.49834174
51	0x3fb9195f	1.4460868
52	0x3f057325	0.5212882
53	0xbd55fb51	-0.052241627
54	0x3ed0d8b6	0.40790337
55	0x3edce523	0.43143567
56	0xbcf23c3f	-0.029569743
57	0xc042cb29	-3.04365
58	0xbf83989c	-1.0280948
59	0x3d497cd9	0.04919133
60	0x3edb9b7d	0.42892066
61	0x3f488bfd	0.78338605
62	0xbe976c3d	-0.29574767
63	0xbc967521	-0.018366398
64	0x3f96fa66	1.1795166
65	0x3f46901f	0.7756366
66	0x3f3df6f1	0.7420493
67	0xbfc05b93	-1.5027946
68	0xbd0c4d08	-0.03425315
69	0x3f743a3e	0.9540137
70	0x3f8782c9	1.0586787
71	0x3bc15b8d	0.0059008063
72	0x404891d5	3.133901
73	0xc02d928f	-2.7120702
74	0x3f04f48c	0.5193565
75	0x3e343434	0.17598039
76	0xc0a9bd51	-5.30436
77	0xbfd08941	-1.6291887
78	0x3f0881bd	0.53322965
79	0x3cd376d5	0.0258135
80	0x4054cfc4	3.325181
81	0x3f32f2c8	0.69901705
82	0x3f2572e6	0.64628446
83	0x3e4012f4	0.1875723
84	0x3e1ed536	0.15511021
85	0x402cad1e	2.6980662
86	0xbbb1b0b7	-0.0054226774
87	0x3c759601	0.014989377
88	0x3d96b48b	0.073586546
89	0xbf6e67f9	-0.931274
90	0x3dba9af6	0.09111588
91	0x409a5eea	4.824086
92	0x3f30f014	0.6911633
93	0xbd393920	-0.045220494
94	0x3fc453c5	1.5338064
95	0xbdddea8d	-0.10835753
96	0xbd996968	-0.07490808
97	0x3cb3924b	0.021920344
98	0xbfe6586e	-1.7995737
99	0xbfea9e4f	-1.8329562
100	0x3d37ed2b	0.044903915
101	0xbeec95f1	-0.46208146
102	0x3f851df8	1.0399771
103	0xc078d2e3	-3.8878715
104	0x3fa70e07	1.3051156
105	0xc089bf5c	-4.3046093
106	0xbf94ea4a	-1.1633999
107	0x3f18452a	0.59480536
108	0xbf811e68	-1.0087404
109	0xbf70edf4	-0.9411309
110	0x3dd8c645	0.10584692
111	0xbcb3457b	-0.021883717
112	0xbd6a492f	-0.0571987
113	0x3f5f0ab9	0.87125736
114	0xbfe88d13	-1.8168052
115	0x406c98f0	3.6968346
116	0x3fb54c48	1.4163904
117	0x3fb44dc8	1.4086237
118	0x3f1e40a8	0.6181741
119	0x3ed5fd51	0.41794828
120	0xba74c6e1	-0.00093374966
121	0x401a8743	2.4145057
122	0xbfcc5d2c	-1.5965934
123	0x3ce304d7	0.027712269
124	0xc09098f2	-4.51867
125	0x3e7d272b	0.24721973
126	0xc044d15d	-3.0752785
127	0xbcb5d48a	-0.022196073
128	0xbd3f67e2	-0.04672993
129	0xc0ffcdaf	-7.993858
130	0xbf20ef1b	-0.62864846
131	0x4049777f	3.1479185
132	0xbdbfd43e	-0.09366654
133	0x3f5e4fac	0.8684032
134	0x3f8ea7b7	1.1144933
135	0xbf4deb87	-0.8043751
136	0xbf939a66	-1.1531494
137	0xbf76cd11	-0.96406657
138	0xc108c37a	-8.547724
139	0x3cd3b8ed	0.025845015
140	0x3fbbc839	1.4670478
141	0xbf7147fd	-0.9425047
142	0x3f2751f1	0.6535941
143	0xbeccda85	-0.40010467
144	0x3f2da678	0.67832136
145	0xbb9f2d0d	-0.0048576654
146	0x3f959ef2	1.1689131
147	0x3f030b9e	0.511896
148	0xbf099130	-0.53737164
149	0xc0d40ecb	-6.626806
150	0x3c01906d	0.007907969
151	0x3eb2c8cc	0.3491882
152	0xbd9fdf45	-0.07806257
153	0xbfc74051	-1.5566503
154	0xbdfa2000	-0.12213135
155	0x40119e10	2.2752724
156	0x3fa30352	1.2735388
157	0x3d8e2330	0.06940305
158	0xc01a06c0	-2.406662
159	0x3f70655c	0.9390466
160	0xbd861a00	-0.06547928
161	0x3d4e50e9	0.05037013
162	0xbf768d19	-0.9630905
163	0xbe8ac1db	-0.27101025
164	0xba5a2132	-0.00083209865
165	0xbed37016	-0.41296452
166	0xbf02fe67	-0.5116944
167	0xbea6f800	-0.32611084
168	0x3f9afd15	1.2108485
169	0x3fb79e79	1.4345237
170	0x3eb73e4a	0.3578971
171	0xc0bb2d93	-5.8493133
172	0xbeefd7a3	-0.46844205
173	0x3b6872ec	0.003546889
174	0xbccb6fc8	-0.024833575
175	0x3da60080	0.08105564
176	0xbba1441a	-0.0049214484
177	0x3f32e876	0.6988596
178	0x3f6961c1	0.91164786
179	0x4038814f	2.8828924
180	0x3f21c209	0.631867
181	0xbfa0ef42	-1.2573016
182	0x3ea1ea48	0.31624055
183	0xc034bf75	-2.8241856
184	0x3c6acc0f	0.014330878
185	0xbf4b396d	-0.793845
186	0xbff6ee02	-1.9291384
187	0x3de79a5a	0.11308737
188	0x3e26c002	0.16284183
189	0xc06da319	-3.7130797
190	0xbf81f6e9	-1.0153476
191	0x3d91d913	0.07121482
192	0xbdf04d12	-0.1173345
193	0x3eb25054	0.3482691
194	0xbecfa053	-0.40552005
195	0xc0901b44	-4.5033283
196	0x3d9c5e10	0.076351285
197	0x3fa5fc46	1.2967613
198	0x3f5eb673	0.86997145
199	0xbfca6375	-1.5811602
200	0xbeb4a31b	-0.3528069
201	0xc02e0e11	-2.7196085
202	0xc0321a4e	-2.7828555
203	0x3da8417c	0.08215615
204	0x3f8862a9	1.0655109
205	0xc009ba8d	-2.1520112
206	0x3fbcaace	1.4739625
207	0xbefb3812	-0.49066216
208	0xbedf9afc	-0.4367293
209	0xbf4bad42	-0.79561245
210	0x40299e64	2.6502924
211	0x3e611f42	0.2198458
212	0xbea92d57	-0.33042404
213	0x3f1e1ded	0.61764413
214	0x3c1efb58	0.00970348
215	0x3ee4908a	0.44641525
216	0x3ddcce2a	0.1078151
217	0xbf6ea202	-0.93215954
218	0xbc08fe28	-0.008361377
219	0x3f1113fb	0.5667111
220	0x3f061fb0	0.523921
221	0xba2ff03e	-0.0006711519
222	0xbea82735	-0.32842413
223	0x3f373df7	0.71578926
224	0x3cd655ff	0.026164053
225	0x3d3d0e8b	0.046156447
226	0xbfc5aad2	-1.5442755
227	0xbfc89d2b	-1.5672964
228	0xbd9475b7	-0.07249015
229	0xbff89a7b	-1.9422144
230	0x3f569379	0.83818775
231	0x3fbfd367	1.498639
232	0x3f163858	0.58679724
233	0x3f20000b	0.62500066
234	0xbf4f0345	-0.80864364
235	0xbf201dcf	-0.62545484
236	0xbdf77050	-0.12081969
237	0x401d9ec2	2.4628148
238	0xbce736c8	-0.028224364
239	0x3d9a5b8d	0.07536993
240	0x3d1b9f49	0.037993703
241	0x3fad640a	1.3546154
242	0xbfa07273	-1.2534927
243	0xbdb561d6	-0.08856551
244	0x3f5fb6eb	0.87388486
245	0x3c8e4729	0.017367916
246	0x3e02edca	0.12786022
247	0x3fe35943	1.7761616
248	0x3d96ea72	0.07368936
249	0x3ea3511e	0.31897825
250	0xbeda0288	-0.42580056
251	0x3d87dab1	0.06633509
252	0xbf79784a	-0.9744917
253	0x3ffe0658	1.9845686
254	0x3ec289d8	0.3799579
255	0xbc37f0b2	-0.01122682

net.4.bias f4 [4]
0	0x3fe6cf21	1.8031961
1	0x3ff3652d	1.9015251
2	0x3fae08e3	1.3596462
3	0x3f6eac53	0.93231696

net.0.weight f4 [64, 4]
0	0x3d24c06a	0.040222563
1	0x3e6d3c7d	0.23167606
2	0xbfeeba28	-1.865056
3	0x3ed4c291	0.41554692
4	0xbe4aeb91	-0.19816424
5	0x3d81eb96	0.063437626
6	0xbcd64f8a	-0.026160974
7	0x3f7ab10b	0.97926396
8	0x3e37de37	0.17955862
9	0x3da2c17c	0.079470605
10	0x3f13727e	0.57596576
11	0xbde49ffe	-0.111633286
12	0xbe6851ce	-0.22687456
13	0x3dd22936	0.102617666
14	0x3faca713	1.3488487
15	0xbf0744c7	-0.5283932
16	0x3c113a89	0.0088640535
17	0x3df0e8b1	0.11763132
18	0xbf7bb0a5	-0.98316413
19	0xbdc4d30e	-0.09610568
20	0x3e16f131	0.14740445
21	0x3e0c3e28	0.13695586
22	0xc01c5322	-2.442574
23	0x3eff3379	0.49843958
24	0xbe4318a5	-0.1905237
25	0xbede8644	-0.43461812
26	0xbf7bec0b	-0.9840705
27	0xbf2b47e4	-0.6690657
28	0xbea5bea6	-0.32372016
29	0xbf52da5f	-0.8236446
30	0x3fbf75e7	1.4957856
31	0xbf8992eb	-1.0747961
32	0x3e918962	0.28425127
33	0xbddaf1eb	-0.106906734
34	0xbfc576db	-1.5426897
35	0xbd6b18aa	-0.05739657
36	0x3db17764	0.0866535
37	0xbca4e966	-0.020130824
38	0x3e9ae1d3	0.30250415
39	0xbe29327d	-0.16523166
40	0xbdc374f7	-0.09543794
41	0xbe932e88	-0.28746438
42	0xbfd58e8f	-1.668413
43	0xbd02a144	-0.031892076
44	0x3b9ab21a	0.0047209384
45	0x3e53f506	0.20698938
46	0x3f6a864a	0.9161116
47	0xbe992058	-0.2990749
48	0x3d867dea	0.06566985
49	0xbf34fa52	-0.7069446
50	0xbe134ae0	-0.14384031
51	0xbf3e73b6	-0.7439531
52	0xbe594d8c	-0.21220988
53	0x3d7e201d	0.062042344
54	0x3ead7ce9	0.3388436
55	0xbf4524ff	-0.77009577
56	0xbe32b46c	-0.17451638
57	0xbf124cf8	-0.57148695
58	0xbbf27068	-0.007398654
59	0xbf9b54af	-1.2135218
60	0x3eaccbc8	0.33749223
61	0xbf83c3df	-1.029415
62	0xbfc223db	-1.5167192
63	0xbf1493c8	-0.58037996
64	0xbd6dcd3d	-0.05805706
65	0xbf3c0cdd	-0.7345713
66	0x3fe9a52c	1.8253531
67	0xbfd77f90	-1.6835804
68	0x3d66d122	0.05635179
69	0x3d7ec1d7	0.06219658
70	0x3d411177	0.047135796
71	0xbe365146	-0.17804441
72	0xbe4a9fdf	-0.19787548
73	0xbed29e37	-0.41136333
74	0xbf272e7f	-0.6530532
75	0xbf7c4e97	-0.9855742
76	0xbe25416b	-0.16138236
77	0x3e5e02b4	0.21680719
78	0x3ebe06f5	0.37114683
79	0x3e089fb5	0.13342173
80	0x3be114df	0.006868943
81	0xbe54fb3e	-0.20798966
82	0x3ff420f0	1.9072552
83	0xbeb4e60c	-0.35331762
84	0xbf12371e	-0.5711535
85	0xbf007003	-0.50170916
86	0x3da1499e	0.078753695
87	0xbfa3131d	-1.2740208
88	0xbf0b180a	-0.54333556
89	0xbeb0cf21	-0.34533027
90	0xbff11a22	-1.88361
91	0xbfaa12e9	-1.3287021
92	0x3d1b140b	0.03786091
93	0x3e8733f5	0.26406828
94	0xbecf56e4	-0.4049598
95	0xbe283b29	-0.16428818
96	0xbed7a5d5	-0.42118707
97	0xbefd60ef	-0.49488017
98	0x3fe8cee3	1.8188137
99	0xc009997d	-2.1499932
100	0xbe4dcbd7	-0.2009729
101	0xbef446a1	-0.47710136
102	0x3fa446ec	1.2834144
103	0xbf278a15	-0.6544507
104	0xbc1480a4	-0.009063873
105	0xbeaede6e	-0.34154075
106	0xbee0a155	-0.43873087
107	0xbe8cf83a	-0.27533132
108	0xbeb9aab6	-0.36263055
109	0xc0b98b11	-5.798226
110	0x3f5ee28d	0.8706444
111	0xbf6f8251	-0.9355822
112	0xbe756930	-0.23965907
113	0xc087eeab	-4.2478843
114	0xbf7a26b5	-0.9771531
115	0xbf4bd788	-0.7962575
116	0x3d9be14f	0.076113336
117	0xbf58b8b8	-0.8465686
118	0xbfbb3be2	-1.462765
119	0xbe5d58b4	-0.21615869
120	0x3ab59e00	0.0013856292
121	0xbe3e8450	-0.1860516
122	0xbd0deaf0	-0.034647882
123	0xbead7924	-0.33881485
124	0xbd092856	-0.033485733
125	0xbfcd9397	-1.6060666
126	0xbfd25f54	-1.6435342
127	0xbead3a01	-0.33833316
128	0x3e530f72	0.2061136
129	0xbc1e7258	-0.009670816
130	0x3f9b80aa	1.214864
131	0xbe357128	-0.17718947
132	0xbc902c56	-0.017599266
133	0x3f6fac51	0.9362231
134	0xbe618664	-0.22023922
135	0x3b9aac77	0.0047202664
136	0xbedff574	-0.43741953
137	0xc083a823	-4.1142745
138	0xbf9cf0cc	-1.2260985
139	0xbf393031	-0.7233916
140	0xbf03b519	-0.5144821
141	0xbe4e6999	-0.2015747
142	0x3fff78a4	1.9958692
143	0xbf16e364	-0.5894072
144	0x3d816a4d	0.063191034
145	0x3da212db	0.07913753
146	0x3fe2260f	1.7667865
147	0x3e79d15a	0.24396268
148	0x3dd4a87b	0.103836976
149	0xbe357d91	-0.17723681
150	0xbf30d6f2	-0.6907798
151	0xbff3847e	-1.9024808
152	0x3c89c39c	0.016816907
153	0x3e0bb2da	0.13642445
154	0x3f046142	0.51710904
155	0xbe21720b	-0.1576616
156	0xbe097677	-0.13424097
157	0xbe5b18ec	-0.21396226
158	0x3f9d7bdb	1.2303423
159	0xbfe11b35	-1.7586428
160	0xbd0631ad	-0.03276222
161	0xbc95d4b1	-0.018289896
162	0x3fcf5688	1.6198282
163	0xbf810275	-1.0078875
164	0x3f0de9af	0.554347
165	0x3c8ed203	0.017434126
166	0xbfd04b65	-1.6273009
167	0xbd8a11b3	-0.06741657
168	0xc03817fa	-2.8764634
169	0xc091df33	-4.558496
170	0xbf928d07	-1.1449288
171	0x3e238d64	0.15971905
172	0x3d5aa997	0.05338439
173	0xbfa04a9d	-1.252277
174	0xbeeb24bd	-0.45926467
175	0xbf2b2715	-0.6685651
176	0xbe7fa606	-0.24965677
177	0xbe95cd38	-0.29258132
178	0x40386f13	2.8817794
179	0xbfad748b	-1.3551191
180	0xbe699905	-0.22812279
181	0x3dd3596d	0.10319791
182	0x4002634a	2.0373101
183	0xbe7b3211	-0.24530818
184	0x3e8f052d	0.27933636
185	0x3e4a54ba	0.19758883
186	0x3f3b2813	0.73108023
187	0xbf0323b6	-0.51226366
188	0x3dc1325a	0.09433432
189	0x3d8b687a	0.06807037
190	0x3fcf844e	1.6212251
191	0x3da6f2ae	0.08151756
192	0xc037725a	-2.8663545
193	0x3e89cf88	0.26916146
194	0x3e1129dc	0.14176124
195	0x3db95b92	0.09050669
196	0xc0181845	-2.3764813
197	0xbe3a6e3c	-0.18206114
198	0xbf29cc94	-0.66327786
199	0xbea3eddf	-0.3201742
200	0xc0456736	-3.0844245
201	0xbe1cf192	-0.15326527
202	0x3f1d1d3d	0.6137274
203	0x3decc1d1	0.11560405
204	0xbde443f0	-0.111457705
205	0xbfa3b791	-1.2790395
206	0xbfa46a2e	-1.2844903
207	0xbfc3244e	-1.5245454
208	0x3d734d29	0.059399758
209	0xbdb9e7a7	-0.09077387
210	0x40341fcc	2.8144407
211	0xbec56bf9	-0.3855894
212	0x3f39a5c1	0.72518545
213	0xbf6ac5ba	-0.91707957
214	0xbf96cd4b	-1.17814
215	0x3e65bc7f	0.22435187
216	0xbf9196f0	-1.1374187
217	0xbe898743	-0.2686101
218	0xbf2a6995	-0.66567355
219	0xbf0f299b	-0.5592286
220	0x3e2d3d51	0.16917922
221	0x3e72bd96	0.23705134
222	0xbf45a51d	-0.7720507
223	0xbea6a399	-0.3254669
224	0xbd362b3b	-0.04447482
225	0xbe0683b9	-0.13136186
226	0x3fa33d7e	1.2753141
227	0xbcd5932c	-0.026071154
228	0xbea32d78	-0.31870627
229	0xbd8381f1	-0.06421269
230	0xc008c63d	-2.1370995
231	0x3f2356b5	0.6380418
232	0x3bd1111d	0.006380214
233	0x3dec6ed3	0.115445755
234	0x3f4ab7ef	0.7918691
235	0xbe44bd63	-0.1921287
236	0xbd026b57	-0.03184065
237	0x3df8e4a9	0.121529885
238	0xbf942730	-1.1574459
239	0xbfb99472	-1.4498427
240	0xbf09ccb7	-0.53827995
241	0xbf86e3df	-1.0538291
242	0x3ca86d45	0.020559916
243	0xbfcb630b	-1.58896
244	0xbff90cf0	-1.9457073
245	0xbfb22f14	-1.3920617
246	0xbf59440d	-0.8486946
247	0xbe349c2e	-0.17637703
248	0xbd15383b	-0.03643058
249	0x3e8a7d5a	0.2704876
250	0xbf859773	-1.0436844
251	0xbed0ae84	-0.40758145
252	0xbf26c163	-0.65138835
253	0xc007dcb2	-2.1228452
254	0xbf6aab00	-0.91667175
255	0xbef302ae	-0.47462982

net.0.bias f4 [64]
0	0x4061c48a	3.5276208
1	0xc0149973	-2.3218658
2	0x3ffd2779	1.9777671
3	0x3feb796b	1.8396429
4	0x4076795e	3.8511577
5	0xc05501d3	-3.3282363
6	0x40052cca	2.0808587
7	0x3f90facd	1.1326538
8	0x40557c38	3.3357067
9	0x4038076f	2.8754537
10	0x3fb98d50	1.449625
11	0x3f14e5ed	0.5816334
12	0xbef20612	-0.47270256
13	0xbf08c7a6	-0.5342964
14	0x3f2beaee	0.6715535
15	0xbfab4eed	-1.3383461
16	0x3f855076	1.041518
17	0x404f578a	3.239718
18	0x40134b0a	2.301455
19	0x404040c9	3.0039542
20	0xc00f4126	-2.2383513
21	0x3f813da0	1.0096931
22	0x3f8ea096	1.1142757
23	0x3db6077d	0.08888147
24	0x4082259f	4.0670924
25	0xc02589f9	-2.5865462
26	0xbd6ea72d	-0.0582649
27	0xbf724eb4	-0.9465134
28	0x40252756	2.5805259
29	0xbf871d4b	-1.0555815
30	0xbef3472a	-0.4751523
31	0x3f868a15	1.0510889
32	0x4043d957	3.0601404
33	0xbf082496	-0.53180826
34	0x3f90d8bb	1.1316141
35	0x3e415fd7	0.18884216
36	0xc026a3ea	-2.6037545
37	0xbf68e0a9	-0.90967804
38	0x403107ef	2.7661092
39	0xc01f9cc8	-2.4939442
40	0x3fd53cd4	1.6659188
41	0xc00cc9b5	-2.1998112
42	0x3f28ef28	0.65989923
43	0xbac01ac3	-0.0014656413
44	0xbe345be5	-0.1761318
45	0x3f541374	0.82842183
46	0x3f4ac08e	0.79200065
47	0xbfdbbbfc	-1.7166743
48	0xc022d0bf	-2.5439909
49	0x4072a8f9	3.7915633
50	0x3ebcfb2a	0.36910373
51	0x40316f2f	2.772411
52	0xbfe51cf9	-1.7899467
53	0xc017340a	-2.3625512
54	0x3fdea350	1.7393589
55	0x404138bb	3.0190876
56	0xbfc87ca7	-1.5663041
57	0x3f95b988	1.1697245
58	0x4061122c	3.5167341
59	0xb9969510	-0.0002872129
60	0x3f93b829	1.1540576
61	0x40484188	3.1289997
62	0xbf37da42	-0.7181741
63	0x403f056d	2.9847062

net.2.weight f4 [64, 64]
0	0xbf829587	-1.0201882
1	0xbfd74ca8	-1.6820269
2	0xbc914740	-0.01773417
3	0x3f07e22a	0.53079474
4	0xbedcdce0	-0.43137264
5	0xc0a0bbe4	-5.022936
6	0x3fc2431a	1.5176728
7	0x3f827196	1.0190914
8	0xbf47a987	-0.77993053
9	0x3dd228a3	0.10261657
10	0xbfdab6e0	-1.7087059
11	0xbd53ccf4	-0.05170913
12	0x3dabfb94	0.08397594
13	0xbf0d4513	-0.55183524
14	0x3f88ebca	1.0696957
15	0xbe267585	-0.16255768
16	0x400109b9	2.0162184
17	0xbd57ab30	-0.05265349
18	0x3e5de747	0.21670257
19	0xbf1294d8	-0.5725837
20	0xbf382d76	-0.7194437
21	0x3f802247	1.0010461
22	0x3eb86b2d	0.3601927
23	0xbf6f8ffd	-0.93579084
24	0xc01ffa24	-2.4996424
25	0x3f9c9d98	1.2235594
26	0x3e06ab3b	0.13151257
27	0x3ed784e7	0.42093584
28	0x3decfe90	0.115719914
29	0xbdc58bba	-0.09645791
30	0x3d0d1ccc	0.03445129
31	0x3f96fc2f	1.179571
32	0x3ecd282a	0.40069705
33	0xbf573e34	-0.8407929
34	0xbef3dd8d	-0.47629967
35	0xbf3c3a2e	-0.73526275
36	0xc04141af	-3.019634
37	0x3d909d54	0.07061258
38	0x3e5e6767	0.21719132
39	0x3fbcea5a	1.4759018
40	0xbfc2f153	-1.5229896
41	0xbf88f84b	-1.0700773
42	0xc02fce18	-2.746954
43	0xbe924780	-0.28570175
44	0x3fd1d0bf	1.6391829
45	0x3e444d5e	0.19170138
46	0x3dce9c0a	0.10088356
47	0xbf85e52f	-1.0460566
48	0xbe2c2179	-0.16809644
49	0x3dd3e7e7	0.10346966
50	0xbc71690a	-0.014734516
51	0xbeb4b2d6	-0.3529269
52	0x3f1d18a3	0.6136572
53	0xbff441f1	-1.9082624
54	0x3fb9733d	1.4488293
55	0xbe24c6a9	-0.16091408
56	0xbf1c6c60	-0.6110287
57	0xc0275a6c	-2.614894
58	0x3e62aad0	0.22135472
59	0x3ed7abf7	0.42123386
60	0xbf32f45a	-0.699041
61	0xbf275045	-0.65356857
62	0xbecb073f	-0.39653966
63	0x3f85b32e	1.0445306
64	0xbf385622	-0.7200643
65	0xc1034067	-8.203223
66	0x3e85bbfc	0.26119983
67	0x40099f34	2.150342
68	0x3e7d3d21	0.2473035
69	0xc104dcbb	-8.303889
70	0x3f9fa439	1.2471992
71	0x3f9262ba	1.1436379
72	0xbe534f8c	-0.20635813
73	0x3f37c497	0.7178435
74	0xbf62054b	-0.88289326
75	0x3f2a2618	0.66464376
76	0xbedbe024	-0.42944443
77	0xbfd6da34	-1.678534
78	0x3f953024	1.1655316
79	0xbcb5a3d9	-0.022172855
80	0x3fe2b604	1.7711797
81	0x3f21222b	0.6294276
82	0x3f8d64e7	1.1046418
83	0xbf12da53	-0.57364386
84	0xc0f7889e	-7.735427
85	0x3fa00d0e	1.2503984
86	0x3f86509f	1.0493354
87	0xbd9f4b86	-0.07778077
88	0xc09c37b2	-4.8817987
89	0xc05bcfbb	-3.4345539
90	0xbd1b512b	-0.037919205
91	0xbef27f2a	-0.47362643
92	0x3c43099e	0.011904148
93	0x3ef735ce	0.48283237
94	0x3db680c4	0.08911279
95	0x3fb20ece	1.3910768
96	0x3ee0ad05	0.43882003
97	0xbe779a4d	-0.24179955
98	0x3f84d9b0	1.0378933
99	0xc0163a6a	-2.3473153
100	0xc0abe67c	-5.3718853
101	0x3dd5483f	0.104141705
102	0x3f43e874	0.7652657
103	0xbf82945a	-1.0201523
104	0xc089efa5	-4.3105035
105	0xbffaf20e	-1.9605119
106	0xbfb0f4dd	-1.3824726
107	0xbe216f30	-0.15765071
108	0x3f848006	1.035157
109	0x3f919510	1.1373615
110	0xbd8baf59	-0.06820554
111	0xc06d9332	-3.712109
112	0xbfb84995	-1.4397455
113	0x3fcc4da2	1.5961192
114	0x3fbd9984	1.4812474
115	0x3fc749d8	1.556941
116	0xc08623ad	-4.191855
117	0xc0e69911	-7.206185
118	0x4003c85f	2.0591047
119	0x3eaa0682	0.3320809
120	0xc0250079	-2.5781538
121	0xbfe50be7	-1.7894257
122	0x3ec0e563	0.37675008
123	0x40341695	2.8138783
124	0x3f64b0e0	0.8933239
125	0x3f0e6f4e	0.5563859
126	0xbf1c91e0	-0.6116009
127	0x3fa65aee	1.29965
128	0x3e9fce24	0.3121196
129	0x3e446fe6	0.19183311
130	0xbf8716f5	-1.0553881
131	0xbf150eb8	-0.58225584
132	0x3e38cac7	0.18046103
133	0xbec6ab58	-0.388026
134	0xc0952ac3	-4.66147
135	0x3dfc4eb9	0.12319703
136	0x3e53504f	0.20636104
137	0x3efa6904	0.48908246
138	0xbe252101	-0.16125871
139	0xc009aaeb	-2.151057
140	0xbfd96560	-1.6984062
141	0x3e421f57	0.18957268
142	0x3f276c35	0.65399486
143	0x3fafe45c	1.3741565
144	0xbe2d8f0b	-0.16949098
145	0xbf1d4d9c	-0.6144655
146	0xbfcc3518	-1.5953703
147	0x3e1f0478	0.15529048
148	0x405eeed7	3.4833276
149	0x3f294805	0.6612552
150	0x3e0466c3	0.12929825
151	0x3e0668b5	0.1312588
152	0x3f3a5a5b	0.7279412
153	0x3fea4359	1.8301803
154	0xbd8cdbbc	-0.068778485
155	0xc046a8dd	-3.1040566
156	0x3f612e5b	0.8796136
157	0x3faf1555	1.3678385
158	0xbd237fc0	-0.039916754
159	0xc07a4439	-3.910414
160	0xbeafb81d	-0.34320155
161	0x3dce09e5	0.10060481
162	0xbeaf2d28	-0.3421414
163	0x3fdd4669	1.7287112
164	0x3cc8b413	0.024499929
165	0x3ebf056a	0.37308818
166	0xbf09fde2	-0.5390302
167	0x3ffc1e0e	1.9696672
168	0x3f59d861	0.85095793
169	0x3f378e90	0.7170191
170	0xc02d6f50	-2.709919
171	0x3f00acf3	0.502639
172	0x3fa10681	1.258011
173	0xbe10f3b6	-0.14155468
174	0xbde4d467	-0.11173325
175	0x3fe34d4d	1.7757965
176	0x3f0fa2cb	0.5610778
177	0xc02cf087	-2.7021806
178	0x3d7e5f5f	0.06210267
179	0xc011d9aa	-2.2789102
180	0x401778e1	2.3667529
181	0xbf0e6a6f	-0.55631155
182	0xbff6ffb1	-1.9296781
183	0x3c8c7238	0.017144307
184	0x3f29e6b0	0.66367626
185	0x3eb5e007	0.35522482
186	0x3de96609	0.11396415
187	0x3f5fa753	0.8736469
188	0xc0835f1a	-4.105359
189	0xbfbff54f	-1.4996737
190	0x3fd9c76b	1.7013983
191	0xbf2f0a99	-0.68375546
192	0x3cc9f43a	0.02465259
193	0xbf9a3b73	-1.2049392
194	0xbee8628a	-0.4538768
195	0xbeddb523	-0.4330226
196	0x3f8605c2	1.0470507
197	0xbf8ac1dd	-1.0840412
198	0x3ec82cea	0.39096767
199	0xbf33d58c	-0.7024772
200	0x3e1cead9	0.15323962
201	0x3ee05129	0.4381192
202	0xbfe0fe67	-1.7577637
203	0x3e460ccd	0.1934082
204	0xbf20bcad	-0.62787896
205	0xc00415e7	-2.0638368
206	0xbf8574af	-1.0426234
207	0x3efcc731	0.4937072
208	0x3fac556c	1.3463569
209	0x3eb3e57c	0.3513602
210	0x3ea87dab	0.32908377
211	0xbea7c24a	-0.32765418
212	0xc08fc80a	-4.493169
213	0xbfb96e8e	-1.4486864
214	0x3c1d78bb	0.009611304
215	0x3e97394b	0.295359
216	0xc01e87a6	-2.4770293
217	0xbfb53de6	-1.4159515
218	0xbd808615	-0.06275574
219	0x3fa1f07c	1.2651515
220	0xbfaa4d76	-1.3304889
221	0x3f0881ee	0.53323257
222	0xbce344f0	-0.027742833
223	0x3fa37825	1.277104
224	0x3e0eb53c	0.13936323
225	0x3f29186e	0.660529
226	0xc01aa3ca	-2.416247
227	0xc0053e53	-2.081929
228	0xbfeeaef6	-1.8647144
229	0x3f06adf6	0.52609193
230	0x3e477b18	0.1948055
231	0xbf5b11e4	-0.85574174
232	0xbfd7b5b0	-1.6852322
233	0xc0195b38	-2.3961926
234	0xc02d5092	-2.7080426
235	0xbeccd687	-0.4000742
236	0x3f12a6cf	0.5728578
237	0x3e40a7d4	0.18814021
238	0xbfd293b6	-1.6451328
239	0xc02441a3	-2.5665061
240	0xbfa41488	-1.2818766
241	0x3f5e5940	0.86854935
242	0xbfc93480	-1.5719147
243	0x3f9223d1	1.141718
244	0xc03eff29	-2.9843237
245	0xbfd44d14	-1.6586022
246	0x3ea12948	0.31476808
247	0x3f1f082e	0.62121856
248	0xc05843ec	-3.3791456
249	0xbf41711f	-0.75563234
250	0x3e21d308	0.15803158
251	0x4065b749	3.5893118
252	0x3df1f6d5	0.118146576
253	0x3f81fe19	1.015567
254	0x3f04f3c7	0.51934475
255	0x3f126aaa	0.57194006

net.2.bias f4 [64]
0	0x3e7ab4b9	0.24483003
1	0x3efd96a9	0.49529007
2	0x3c86efb5	0.016471723
3	0x3f3f2f01	0.746811
4	0xbe306226	-0.1722494
5	0x4023b8d8	2.558157
6	0x4032e133	2.794995
7	0x3f2c5acc	0.67326045
8	0x3f31205e	0.69190013
9	0x3feaf96c	1.8357368
10	0x3f855bca	1.0418637
11	0x3fd94551	1.6974279
12	0x3e86dc76	0.26340073
13	0x3fb6042f	1.4220027
14	0x4004e8c5	2.0767071
15	0xbedf229d	-0.43581095
16	0x3f857e2d	1.0429131
17	0x3e3ed87d	0.18637271
18	0xbf37dc35	-0.71820384
19	0x3fea0347	1.828225
20	0xbeb4c104	-0.3530351
21	0x3e6a76e8	0.22896922
22	0x3d50838b	0.0509067
23	0x400b2026	2.1738372
24	0xbde0e6dd	-0.10981534
25	0x3fa752ae	1.3072107
26	0xbd552a2c	-0.05204217
27	0xbeceb695	-0.40373674
28	0xbfa9cb09	-1.3265086
29	0xbd31a78a	-0.04337267
30	0x3f3e0361	0.74223906
31	0x4006dfdd	2.1074135
32	0xbdd4dba8	-0.103934586
33	0xbe0dcb0f	-0.13846992
34	0x3fac77a5	1.3474013
35	0xbffe5543	-1.986977
36	0xbe1c33bc	-0.1525411
37	0x3f3b9647	0.7327618
38	0xbdff926e	-0.12479101
39	0xbed1af28	-0.40953946
40	0x40310a17	2.7662408
41	0x3daa55e5	0.08317164
42	0x3f3c80e2	0.7363416
43	0x3f825c30	1.0184383
44	0xbe6838b1	-0.22677876
45	0xbf46e67c	-0.7769544
46	0xbd5b2d3c	-0.053509936
47	0xbd48aa2b	-0.04899041
48	0xbe35aae2	-0.17740968
49	0x40223a54	2.53481
50	0xbff00b2c	-1.8753409
51	0xbc35a5c6	-0.011086887
52	0x403a8c52	2.9148145
53	0xbe25f285	-0.16205795
54	0x402d1aa1	2.7047503
55	0x3f5aef02	0.85520947
56	0xbce4ac7d	-0.02791428
57	0x3f1eae3a	0.619846
58	0x3fd51f58	1.665019
59	0xbda1ac85	-0.078942336
60	0x3fac0192	1.3437979
61	0x3f43e05e	0.7651423
62	0x3ec4240f	0.3830876
63	0xbcfd7182	-0.030937914

net.4.weight f4 [4, 64]
0	0xc0301081	-2.7510073
1	0x40091461	2.1418688
2	0x3ee6a107	0.4504473
3	0xbe7ac414	-0.2448886
4	0xbc991163	-0.018685048
5	0x3f338f83	0.70140857
6	0x3f62436d	0.88384134
7	0x3f75719c	0.9587648
8	0xc037de2a	-2.8729348
9	0xc04979ea	-3.148066
10	0x40368923	2.8521202
11	0x3f0586a5	0.52158576
12	0x3d2a9760	0.04164827
13	0xbf69f02c	-0.913821
14	0x3f9080a0	1.1289253
15	0xbf70957d	-0.939781
16	0xc01369f2	-2.3033414
17	0x3f54cd33	0.8312561
18	0xbe9c0e8d	-0.3047985
19	0x3fb99d8c	1.4501204
20	0xbe887c2f	-0.26657245
21	0x3ee729fc	0.4514922
22	0x3d0c5792	0.0342632
23	0x3f108f9b	0.56469125
24	0xbd784356	-0.06061109
25	0xc00e9031	-2.2275507
26	0xbd4f70c0	-0.050644636
27	0xc021fc67	-2.5310304
28	0xbf16cdb3	-0.5890762
29	0x3d43a77c	0.047767147
30	0xbf6e2b50	-0.9303484
31	0x3f6ec6b1	0.9327193
32	0x3cca96bf	0.024730084
33	0x3d6b9280	0.05751276
34	0xbf8bcd19	-1.0921966
35	0xbf1ac41d	-0.60455495
36	0xbd703e35	-0.058653075
37	0x3f8c226f	1.0948008
38	0xc0409d9e	-3.0096202
39	0x405b5a95	3.4274037
40	0x3f129781	0.57262427
41	0xc019c322	-2.402535
42	0xbf207e55	-0.6269277
43	0xbf4d8bbc	-0.8029134
44	0xc0039e5f	-2.0565412
45	0x40a19a9b	5.0501227
46	0x3aad2e00	0.0013212562
47	0x3cd02adf	0.025411068
48	0xbc8bb9c2	-0.01705635
49	0x3f619138	0.8811221
50	0x3efdff8d	0.49609032
51	0x3fb98edc	1.4496722
52	0x3f049ac6	0.51798666
53	0xbd605430	-0.054767787
54	0x3ecf76eb	0.40520415
55	0x3edf729d	0.4364213
56	0xbcf23bfa	-0.029569615
57	0xc0424b67	-3.0358522
58	0xbf8329a9	-1.0247089
59	0x3d497d1a	0.04919157
60	0x3edcfcd9	0.43161657
61	0x3f49149e	0.78547084
62	0xbe97a067	-0.29614565
63	0xbc96756b	-0.018366536
64	0x3f96fa9f	1.1795233
65	0x3f460e72	0.7736579
66	0x3f3e1356	0.74248254
67	0xbfc12849	-1.5090419
68	0xbd0c4d6a	-0.034253515
69	0x3f746dbd	0.9547995
70	0x3f8798b4	1.0593476
71	0x3b865926	0.004099983
72	0x4048613d	3.130935
73	0xc02d90f6	-2.7119727
74	0x3f05209d	0.5200289
75	0x3e326549	0.1742145
76	0xc0a9e9aa	-5.3097734
77	0xbfd05678	-1.6276388
78	0x3f08abfd	0.53387433
79	0x3cd8eeef	0.02648112
80	0x4054ab83	3.3229682
81	0x3f32f32d	0.69902307
82	0x3f246fd8	0.6423316
83	0x3e4142a2	0.18873075
84	0x3e1de478	0.15419185
85	0x402cad50	2.6980782
86	0xbbb1b086	-0.0054226546
87	0x3c8628f2	0.016376946
88	0x3d96b4b3	0.073586844
89	0xbf6f3d66	-0.9345306
90	0x3dba9af6	0.09111588
91	0x409a38b2	4.819421
92	0x3f30f055	0.6911672
93	0xbd393920	-0.045220494
94	0x3fc44acd	1.5335327
95	0xbddd6842	-0.10810901
96	0xbd996948	-0.07490784
97	0x3cb3922a	0.021920282
98	0xbfe634c2	-1.798485
99	0xbfea9a62	-1.8328364
100	0x3d37ed02	0.044903763
101	0xbeecb46e	-0.46231407
102	0x3f851e5a	1.0399888
103	0xc0792c54	-3.8933306
104	0x3fa72451	1.3057958
105	0xc089eb0a	-4.3099413
106	0xbf9591ca	-1.1685116
107	0x3f186ec0	0.5954399
108	0xbf811e3c	-1.0087352
109	0xbf7241d7	-0.94631714
110	0x3dd8c663	0.10584714
111	0xbcb34536	-0.021883588
112	0xbd6a4998	-0.05719909
113	0x3f5f3ea9	0.87204987
114	0xbfe888fb	-1.8166803
115	0x406c96cb	3.6967037
116	0x3fb56d79	1.4174033
117	0x3fb4443a	1.4083321
118	0x3f1ebf8c	0.6201103
119	0x3ed6a2e3	0.41921148
120	0xba74c6c2	-0.00093374786
121	0x401a5905	2.4116833
122	0xbfcc82a0	-1.5977364
123	0x3ce3050c	0.027712367
124	0xc0909210	-4.51783
125	0x3e7d2e7f	0.24724768
126	0xc044d8ab	-3.0757244
127	0xbcb5d4ad	-0.022196138
128	0xbd3f683d	-0.04673027
129	0xc0ffc780	-7.993103
130	0xbf209f00	-0.62742615
131	0x4049822b	3.1485698
132	0xbdbfd40e	-0.09366618
133	0x3f5e0495	0.8672574
134	0x3f8e85c5	1.1134573
135	0xbf4c3945	-0.79774886
136	0xbf9334c3	-1.1500477
137	0xbf76babe	-0.96378696
138	0xc108be8a	-8.546518
139	0x3ca8398b	0.020535251
140	0x3fbb7a60	1.4646721
141	0xbf71c484	-0.94440484
142	0x3f2708e8	0.65247965
143	0xbecf1286	-0.4044382
144	0x3f2e8612	0.68173325
145	0xbb9f2d10	-0.004857667
146	0x3f95c536	1.1700809
147	0x3f02afec	0.51049685
148	0xbf0a821c	-0.5410478
149	0xc0d40e94	-6.6267796
150	0x3c019096	0.007908007
151	0x3eb1e846	0.34747523
152	0xbd9fdf30	-0.078062415
153	0xbfc799dd	-1.559383
154	0xbdfa2000	-0.12213135
155	0x4011d927	2.278879
156	0x3fa3037c	1.2735438
157	0x3d8e2356	0.069403335
158	0xc019e4f1	-2.4045985
159	0x3f6fee59	0.93723065
160	0xbd8619eb	-0.06547912
161	0x3d4e510a	0.050370254
162	0xbf7709c3	-0.9649927
163	0xbe8a3bef	-0.2699885
164	0xba5a20e0	-0.0008320939
165	0xbed2e0d3	-0.41187152
166	0xbf02fe9a	-0.5116974
167	0xbea5f51c	-0.32413566
168	0x3f9adc5b	1.2098497
169	0x3fb7c21d	1.4356114
170	0x3eb77075	0.35827985
171	0xc0bb2564	-5.8483143
172	0xbeefd7dc	-0.46844375
173	0x3c1b4561	0.00947699
174	0xbccb6fc8	-0.024833575
175	0x3da600b8	0.08105606
176	0xbba143d5	-0.0049214163
177	0x3f329ef2	0.6977378
178	0x3f69a66e	0.91269577
179	0x4038d0d6	2.8877463
180	0x3f218390	0.63091373
181	0xbfa0ed28	-1.2572374
182	0x3ea0f5ef	0.31437632
183	0xc0349fd3	-2.822255
184	0x3c6acc11	0.01433088
185	0xbf4a9a7d	-0.7914198
186	0xbff6cdc0	-1.928154
187	0x3de79a19	0.11308689
188	0x3e27ddbc	0.16393179
189	0xc06d954a	-3.712237
190	0xbf81eab0	-1.0149746
191	0x3d91d957	0.071215324
192	0xbdf04d71	-0.11733521
193	0x3eb22c90	0.34799623
194	0xbecf64a1	-0.4050646
195	0xc0901c21	-4.5034337
196	0x3d9c5e4f	0.076351754
197	0x3fa5ec7a	1.2962792
198	0x3f5e93be	0.86944187
199	0xbfca8e83	-1.5824741
200	0xbeb62575	-0.35575452
201	0xc02e3e4c	-2.7225523
202	0xc032462a	-2.7855325
203	0x3d950b31	0.07277525
204	0x3f8813f9	1.0631095
205	0xc009d3c3	-2.15355
206	0x3fbc9a08	1.4734507
207	0xbefad8e7	-0.48993608
208	0xbee2d071	-0.44299653
209	0xbf4bada6	-0.7956184
210	0x40297c58	2.6482143
211	0x3e5f5f3e	0.21813676
212	0xbea89ad9	-0.3293064
213	0x3f1e1df7	0.6176447
214	0x3c1efb73	0.009703505
215	0x3ee3ba31	0.4447799
216	0x3ddcce6b	0.107815586
217	0xbf6f5aa2	-0.9349767
218	0xbc08fe27	-0.008361376
219	0x3f104f1f	0.5637073
220	0x3f061f63	0.5239164
221	0xba2ff015	-0.0006711495
222	0xbea9a478	-0.33133292
223	0x3f36da77	0.714271
224	0x3cd655c8	0.02616395
225	0x3d3d0e4a	0.046156205
226	0xbfc5dc3f	-1.5457839
227	0xbfc87c04	-1.5662847
228	0xbd9475b4	-0.072490126
229	0xbff8e533	-1.9444946
230	0x3f5693e3	0.8381941
231	0x3fc03f30	1.5019283
232	0x3f16170b	0.5862891
233	0x3f2071ea	0.6267382
234	0xbf4ee2e7	-0.80814976
235	0xbf20d7e1	-0.62829405
236	0xbdf77002	-0.12081911
237	0x401db490	2.4641457
238	0xbce736c8	-0.028224364
239	0x3d9a5bdb	0.07537051
240	0x3d1b9faf	0.037994083
241	0x3fad5490	1.3541431
242	0xbfa06615	-1.2531153
243	0xbdb98133	-0.09057846
244	0x3f5f82f6	0.87309206
245	0x3c88775d	0.01665848
246	0x3e01873c	0.12649244
247	0x3fe2f12e	1.7729852
248	0x3d96ea38	0.073688924
249	0x3ea1cf06	0.3160326
250	0xbedba765	-0.4290115
251	0x3d87dabe	0.06633519
252	0xbf7a4359	-0.97759014
253	0x3ffe05a4	1.9845471
254	0x3ec0e5cf	0.3767533
255	0xbc37f0e9	-0.011226871

net.4.bias f4 [4]
0	0x3fe66bda	1.8001664
1	0x3ff37c26	1.9022262
2	0x3fade2d3	1.3584846
3	0x3f6e79dd	0.931547
